models/basic_cnn_best.pth (torch, 436265 bytes, 20 tensors)

features.0.weight f4 [32, 3, 3, 3]
000000 cf 8c 1c be a1 bc 3b 3e 6c 34 12 be 77 db 38 bc
       -0.15288089 0.18333675 -0.1427781 -0.011282793
000010 85 7b 8b bc 68 b3 f9 3d 9c f9 1d 3d aa 0b 03 be
       -0.017026672 0.12192422 0.038568124 -0.12797418
000020 83 20 13 be 6a ff 22 3e a9 15 62 3d e2 a4 0b 3e
       -0.14367871 0.15917745 0.055196438 0.13637117
000030 b4 76 0e 3d 7e 9d e3 3c b3 86 94 3d 56 20 1f 3e
       0.034781173 0.027785059 0.07252254 0.15539679
000040 fa 6c 3c 3d 20 84 ea 3d 4b fd e5 bd 2a db dc bc
       0.046002366 0.11450982 -0.112299524 -0.026959974
000050 2b c0 9d 3c 61 33 bc ba 33 3c 81 3d d4 52 5a bc
       0.019256672 -0.0014358574 0.0631031 -0.013325412
000060 34 01 11 3e 30 09 8f bd 8b 73 1c 3e f5 8c 03 3c
       0.14160615 -0.06984174 0.15278451 0.008029212
000070 f3 60 48 bc 6b 27 1e bd 3b 75 c6 bc 9a a4 10 3e
       -0.012230146 -0.03861181 -0.024225822 0.1412529
000080 4b ec cd bd 21 7f 00 be 49 e0 6d bd 39 4f b8 bb
       -0.10054835 -0.12548496 -0.058075223 -0.0056246785
000090 bf a3 1e be ee 92 34 bd 4b cf 96 bd 3a a4 33 bd
       -0.15492152 -0.044085436 -0.07363757 -0.04385779
0000a0 d6 9c 82 bb 49 b7 17 be 17 c2 8a 3d f4 b4 e9 bd
       -0.0039859815 -0.14816011 0.06775301 -0.11411467
0000b0 9f 4b 24 bd 6b 66 b4 bd 92 0b b9 3d a2 fb 10 be
       -0.04011118 -0.08808597 0.0903541 -0.1415849
0000c0 28 95 1f 3e c0 8e 20 be 2e 60 a0 bc 19 f2 52 bd
       0.15584242 -0.15679455 -0.019577112 -0.051500414
0000d0 c0 9b 25 be 52 cb 73 3d 14 1c 12 be ed 84 2a be
       -0.16172695 0.059520073 -0.14268523 -0.1665227
0000e0 f9 d0 39 3c 9c a2 3f bd 1b 8d 3e bc c6 e0 0b 3e
       0.011341327 -0.046785936 -0.011630322 0.13659963
0000f0 d5 ee 26 be 00 b0 15 3d 62 74 0b be ad 02 08 be
       -0.16302045 0.0365448 -0.13618615 -0.1328227
000100 c1 b8 f0 bd 17 57 1d bc d8 83 14 be 57 80 a9 bd
       -0.11753989 -0.009603283 -0.1450342 -0.08276432
000110 81 2f a6 3d a8 e1 15 3e 2b 11 0b bd d8 95 8e bd
       0.081145294 0.14636862 -0.03395192 -0.06962174
000120 e1 35 12 3e 29 ed c7 3d 55 6e b8 3d ed 36 d5 bc
       0.14278366 0.097620316 0.09005419 -0.026027167
000130 d7 49 34 3e 35 bb 32 be 27 e3 04 be 39 88 b6 3d
       0.17606293 -0.17454226 -0.12977277 0.08912701
000140 32 64 11 be 48 46 14 be 01 75 0a be 1e 56 37 bc
       -0.14198378 -0.14479935 -0.13521196 -0.0111899655
000150 18 c6 a1 bd 7b 53 19 3e c8 84 a0 bd e1 b9 b3 3d
       -0.078991115 0.14973252 -0.07837826 0.08775688
000160 5d 02 76 3d 8d 74 bd 3d 21 8f d5 bd 89 01 9f 3d
       0.060060848 0.09250746 -0.1042769 0.07763965
000170 3a a4 d4 3b 01 96 23 be 09 8f be 3c 94 4d cd bd
       0.006489304 -0.1597519 0.023261564 -0.100245625
000180 16 ac a2 bc d1 92 bd bd 51 f4 05 be dd 1c 17 3d
       -0.019857448 -0.09256519 -0.1308148 0.03689276
000190 e8 4e 29 be 07 7e 11 be c8 f2 4a be bf 9d 70 3d
       -0.16534007 -0.14208232 -0.19819176 0.05874419
0001a0 1b 12 8c bc 4d 51 2e bd 73 3a 02 3e ed ee f6 3d
       -0.017098477 -0.042558003 0.12717609 0.1205729
0001b0 a9 f8 08 3e 80 d0 eb 3d 19 60 74 3c a8 b0 ac bd
       0.13376106 0.115143776 0.01491549 -0.08432132
0001c0 14 42 bc bb 00 ee 3d 3d ff 2e a1 3d db bb 21 be
       -0.005745182 0.046369553 0.07870292 -0.15794317
0001d0 6d 53 a1 bd 46 c2 14 be 06 ad f1 bc c4 8f dc 3c
       -0.0787724 -0.14527234 -0.02950145 0.026924022
0001e0 2d 24 4a be e8 cd 24 be 56 c1 d0 3d 80 1a f5 ba
       -0.19740362 -0.16094172 0.10193126 -0.0018699914
0001f0 d2 45 07 3e 4b b5 90 3d 92 8d 93 3d 2a 70 b2 bc
       0.13210228 0.07065829 0.07204737 -0.021782
000200 fb 32 d2 bd 6e 33 f5 3c 4a aa 9c bc 31 03 12 3d
       -0.1026363 0.02993175 -0.019124169 0.035647575
000210 2e 3a 2a bd 4b c8 20 be 9a 19 25 3e 4a 3f 9d 3b
       -0.04155939 -0.15701406 0.16123047 0.0047988044
000220 e3 ce 34 3d 30 61 05 be f7 5f ff 3c 2b 76 d7 3d
       0.044142615 -0.13025355 0.03117369 0.105205856
000230 33 56 27 be 9f 74 18 be fb e2 c6 bd 97 e6 b2 bc
       -0.16341476 -0.14888237 -0.09711262 -0.02183847
000240 c9 eb b6 3d 08 33 31 3e 96 63 3e be 8a 71 de bd
       0.08931691 0.17304623 -0.18592677 -0.108614996
000250 36 5b 97 bd ee ef 25 be ca b4 ab 3d 7c 69 fc bc
       -0.07390444 -0.16204807 0.08384092 -0.030812018
000260 27 cf 29 3d 3b f8 5c bd f1 f5 a3 3c 81 64 38 3e
       0.04145732 -0.05394767 0.020014735 0.18007089
000270 71 1e 9d bd 3e bf 41 bc 15 6a 9d bc 3a 94 d6 3d
       -0.07671822 -0.011825381 -0.019215623 0.10477491
000280 56 44 53 bd 0e e1 4b 3d 5d 24 f0 3d 3d db 05 3e
       -0.051578842 0.049775176 0.11725686 0.13071914
000290 0f 1c ca 3b aa d2 34 3d 28 44 45 be 89 e3 cf bd
       0.0061678956 0.044146217 -0.19264281 -0.10150821
0002a0 00 b8 66 bc 3e f2 b5 3d 16 b8 e4 bd 1b 36 1d 3e
       -0.014081955 0.08884095 -0.11167924 0.15352671
0002b0 aa 30 2e 3e 4b da 8e 3d 2a 02 1a 3e e5 b8 d5 3d
       0.17010751 0.0697523 0.15039888 0.104356565
0002c0 75 35 c5 3d 96 73 44 bc 25 2e 5e bd b3 9c 18 be
       0.09629337 -0.011990448 -0.054243226 -0.14903526
0002d0 a0 20 1c 3e cf b8 70 3d 3d 34 a8 ba 07 c2 25 3e
       0.1524682 0.058769997 -0.0012832951 0.16187297
0002e0 80 6a 23 3e f1 d7 1a 3e 04 bf 1f be 64 45 ec bd
       0.15958595 0.15121438 -0.1560021 -0.11536673
0002f0 65 91 29 3c 8a c5 de bd 5b 3e 34 be 73 1e 05 be
       0.010349606 -0.10877521 -0.17601912 -0.12999897
000300 e3 a9 43 3e b7 48 03 3e c3 de c8 3d 91 4e 36 3e
       0.19107775 0.12820707 0.098081134 0.17803408
000310 cc 66 0c 3e 99 ea 1a be b7 9b 1c be 52 c9 27 3d
       0.13711089 -0.15128554 -0.15293775 0.04096348
000320 73 ea 29 3d 60 c2 41 3e ad b6 98 3d 69 c0 e8 bd
       0.041483354 0.18921804 0.07456718 -0.11364824
000330 dc 6d 2a bc 4c f4 33 3e 1e 05 bb bd e5 f0 27 be
       -0.010402169 0.1757366 -0.091318354 -0.16400488
000340 f2 66 08 3e 56 30 c1 bc 14 29 d0 3d 84 0b 0b 3e
       0.1332052 -0.023582619 0.10164085 0.13578612
000350 38 31 9b 3d 75 3e 07 be b0 2a a3 bc 5d da 32 be
       0.07577747 -0.13207419 -0.019917816 -0.17466111
000360 8a 9e b8 3d 3f c8 05 bd ec 74 80 bb a4 8e cb bc
       0.09014614 -0.032661673 -0.003920188 -0.02484829
000370 1e 36 3c 3c 50 30 e8 3d b3 ca 3f bd 9d 13 00 3c
       0.011487512 0.1133734 -0.04682417 0.007817176
000380 db 73 18 3e 37 02 d9 3d b3 2c 1c 3e 74 5a 24 3e
       0.14887945 0.105961256 0.15251426 0.1605013
000390 0a a6 34 be ea fd 80 3d 51 87 e2 3d 08 70 ee bd
       -0.17641464 0.0629843 0.11060966 -0.11642462
0003a0 c9 0c 48 be 9b 60 77 bd cb 7b cf bd 8f b1 92 3d
       -0.19536127 -0.060394865 -0.101310335 0.07162773
0003b0 81 c5 e3 3b 58 31 3e be af c7 7b 3d 5d 99 1b 3d
       0.0069510345 -0.1857351 0.06146973 0.037988055
0003c0 ad c3 a7 3d 0b 74 f1 bd 7f 8e c6 bc 9a b9 f3 bd
       0.08191619 -0.117897116 -0.02423787 -0.11900635
0003d0 18 f2 c3 3d 8d e8 c1 3d 8e 5f 84 3d 22 cb 12 3d
       0.0956766 0.09468184 0.06463538 0.035838254
0003e0 3a bd ae bd 6e ce e0 3c 85 4d 29 3e 75 4e 20 3e
       -0.08532186 0.027442183 0.16533478 0.15654929
0003f0 33 a3 af bd 5d b0 4f bc 43 6c e2 3c 99 ac f4 bd
       -0.0857605 -0.012676326 0.027639514 -0.11946983

features.0.bias f4 [32]
000000 f2 f7 17 3e 1f 45 f4 bd f2 b0 ef bd 82 23 f0 3d
       0.14840677 -0.11927246 -0.117036715 0.117255226
000010 92 b7 aa 3d b9 16 1c 3d c4 0c 24 3e 19 f8 a0 bd
       0.083357945 0.038107608 0.16020495 -0.07859821
000020 9e d6 ba bd 55 77 f0 bd d6 42 13 3e 92 d8 92 3d
       -0.09122966 -0.11741511 0.14380965 0.07170214
000030 01 70 e8 bd 42 6c 22 bd 68 cb 10 3c 88 f6 13 bd
       -0.11349488 -0.039654024 0.008837558 -0.036123782
000040 af 10 9b 3d d5 3d 9c bd 29 aa ed bd 86 4b 27 3e
       0.075715415 -0.07628981 -0.11604721 0.16337404
000050 54 4f fb 3d e5 40 0c 3e c3 b1 2e be 3a f7 05 3e
       0.1227099 0.1369663 -0.17059998 0.1308259
000060 78 a0 1c be eb 08 ec 3d 45 88 a2 bb a3 6e 0d be
       -0.15295589 0.115251385 -0.0049600923 -0.13811736
000070 af f1 cc 3d a7 ec 81 3d a8 e5 01 be 09 05 9b 3d
       0.10007035 0.06343966 -0.12685263 0.0756932

features.1.weight f4 [32]
000000 10 85 7e 3f 55 11 82 3f b9 d6 7e 3f 09 48 81 3f
       0.9942179 1.0161539 0.9954639 1.0100108
000010 e8 89 7d 3f ac 3d 80 3f ec bb 7f 3f a7 b1 80 3f
       0.99038553 1.0018821 0.9989612 1.0054215
000020 71 6a 81 3f 48 cb 7d 3f 8e 18 80 3f 94 62 80 3f
       1.0110608 0.9913831 1.0007493 1.0030084
000030 54 6f 7d 3f 90 d5 7f 3f f7 70 80 3f b2 8b 80 3f
       0.98998 0.99935246 1.0034474 1.0042632
000040 e9 0c 80 3f bd 60 7f 3f 61 31 7f 3f ec 9c 7d 3f
       1.000394 0.99756986 0.9968472 0.9906757
000050 09 40 80 3f bb 7b 7e 3f 41 f8 7d 3f 27 e9 7e 3f
       1.0019542 0.9940755 0.9920693 0.9957451
000060 d8 a1 80 3f 66 80 81 3f 33 be 7e 3f a2 13 7f 3f
       1.0049391 1.0117309 0.9950897 0.9963933
000070 cb 0b 80 3f c9 eb 7e 3f 81 7d 7c 3f 9c 38 7e 3f
       1.0003599 0.9957853 0.98629004 0.9930513

features.1.bias f4 [32]
000000 a5 69 66 bb e1 56 30 bc d9 64 2a bc 0d 5e 60 bc
       -0.0035158184 -0.010762901 -0.0104000205 -0.013694298
000010 1c 37 2a bc 53 41 2e bb 18 fb ab 39 2e 92 10 bb
       -0.010389116 -0.002658923 0.0003280274 -0.0022059786
000020 fd 62 0e bc 18 db fe bb 7b a4 20 bc d1 ea 9f bb
       -0.008690593 -0.007777583 -0.00980484 -0.004880287
000030 91 39 f1 bb b2 67 b0 3a 52 df 19 3c 40 96 c5 bb
       -0.007361599 0.0013458638 0.009391623 -0.006029874
000040 58 c7 f0 bb 42 23 97 ba f5 5a 22 bb f0 fc 52 bb
       -0.0073479824 -0.0011530893 -0.0024773453 -0.003219422
000050 82 fb 25 bc 1a c2 d1 bb f6 f5 8d 3b df 07 78 3b
       -0.010130765 -0.0064013125 0.0043322993 0.0037846488
000060 31 57 1f bc b7 32 a4 bb eb 67 a0 b9 38 ab 2a bc
       -0.009725378 -0.0050109285 -0.00030595003 -0.010416798
000070 74 33 c2 bb 1c df 25 bc cb 75 01 bc 62 b9 bb 3a
       -0.005926544 -0.010123994 -0.007901619 0.0014322216

features.1.running_mean f4 [32]
000000 f1 07 ca 3f fc f6 0d c0 e8 be ae bf f8 55 b2 bf
       1.5783674 -2.2181997 -1.365201 -1.3932486
000010 5e db 9b be 22 0b 18 bf dd 94 05 40 0c b2 c7 3e
       -0.304408 -0.5939199 2.087211 0.39003026
000020 67 c0 94 3d 9b 31 2e 3f b8 8e 5f bf d2 12 a2 be
       0.0726326 0.6804444 -0.87327147 -0.31654984
000030 53 30 ce 3e 92 b0 b9 3f 65 a0 8e 3f ec bd 37 bf
       0.40271243 1.450701 1.1142699 -0.7177417
000040 a3 03 27 c0 55 5d 3a 3f d7 d8 f4 3f 2f 46 04 3f
       -2.609597 0.72798663 1.9128674 0.5166959
000050 26 ec 17 be 53 35 c2 3d 37 8a 89 3f 84 90 20 3f
       -0.14836177 0.09482827 1.0745305 0.62720513
000060 0b 34 b7 bf f8 62 ca bf ac 96 a7 3e cf 3a c0 bf
       -1.4312757 -1.5811453 0.3273214 -1.5017947
000070 28 8c 39 bf 21 b3 1b be c0 0c 5a 3f 3f d0 da 3e
       -0.72479486 -0.15205051 0.85175705 0.42737004

features.1.running_var f4 [32]
000000 d0 42 63 3e 7a 5d ef 3e fc e5 7a 3e a7 f4 99 3e
       0.22193456 0.46751004 0.24501795 0.30069467
000010 3d 61 a4 3d 14 01 d8 3d b1 7f 07 3f 6a 49 4f 3e
       0.08026359 0.10547081 0.52929217 0.20242849
000020 ff d6 42 3e 64 bf 4a 3e 87 46 be 3e 91 b1 b9 3d
       0.19027327 0.19799572 0.37163183 0.09067071
000030 9e f5 8b 3d 45 d9 ed 3e 18 43 34 3e 6f d1 05 3e
       0.06833957 0.46454826 0.17603719 0.13068174
000040 0a bd 52 3f 60 f3 d4 3d 17 82 f9 3e 04 ce ef 3d
       0.823197 0.103979826 0.48732063 0.11709216
000050 57 60 95 3e 21 56 f7 3d 9f 91 93 3e 1b 65 98 3d
       0.29175064 0.12076975 0.28822038 0.07441159
000060 5c c2 6f 3e d3 6c 0a 3f f9 62 40 3d 4e 0c 4e 3e
       0.23413986 0.540723 0.046969388 0.20121881
000070 ae 1e 49 3e cc a1 16 3e 92 39 46 3e 33 06 8e 3d
       0.1964061 0.14710158 0.19357899 0.06934776

features.4.weight f4 [64, 32, 3, 3]
000000 93 e5 fe 3c 45 b3 41 3c 7b 72 ff bc 04 5c 1f 3c
       0.031115329 0.011822526 -0.031182518 0.009726528
000010 e1 a4 a8 3a 87 66 06 3d d8 53 62 3d 5a 23 52 bd
       0.001286652 0.03281262 0.05525574 -0.051303245
000020 ca 88 85 bb 35 20 d3 bc 1f d6 01 3c 1c b1 5c 3c
       -0.0040751444 -0.025772193 0.007924586 0.013469961
000030 57 70 ac bb 8c dc 43 bc d3 b3 1c bd 58 94 d7 bc
       -0.0052624154 -0.011954438 -0.03825743 -0.026315853
000040 c8 bc 3f bd bf 89 1d bd 84 55 17 3d c1 32 18 3c
       -0.046810895 -0.038461443 0.03694679 0.009289444
000050 90 fd 94 3b f7 e6 e2 3c 96 ff 4e bd dc d0 e4 bc
       0.0045468286 0.027698023 -0.050536714 -0.027931623
000060 bc cd 8f 3c 38 ba 0f bc f6 23 53 bc ef ff dd 3c
       0.017554156 -0.008772425 -0.012886992 0.027099578
000070 e6 65 2f bd 82 a4 2f 3c 08 c3 12 3d e4 61 b9 bb
       -0.042821787 0.010720374 0.035830528 -0.0056574214
000080 3e d8 1a 3d 44 9d 35 3d 4a f7 f8 bc e6 a1 88 3d
       0.03780388 0.044339433 -0.030391354 0.06671505
000090 5a da 02 bd 92 cc 42 bc f8 91 e3 3c 3a 57 9f bc
       -0.031946518 -0.011889594 0.027779564 -0.019450773
0000a0 45 42 3d 3c 9b 5b 2b 3d 14 7a d0 3c f7 77 59 3d
       0.011551444 0.04183541 0.025448836 0.053092923
0000b0 32 99 6b 3d c6 c7 52 3a 31 4e 37 3d b7 f5 46 bd
       0.057519145 0.0008040633 0.044752304 -0.048574176
0000c0 a9 ca 55 3d d5 38 aa 3b ae 0f 4f 3c 2e 4f 67 bc
       0.052195225 0.005194763 0.012638016 -0.014117999
0000d0 3d 3c a9 3c c5 9e 04 bc 18 71 57 3d 7f 8b 30 3d
       0.020658607 -0.008094494 0.05259809 0.043101784
0000e0 e6 ba b7 3c ca 2a 2c 3c d3 4b 4a bd 23 19 08 3d
       0.022427987 0.010508249 -0.049388718 0.033227097
0000f0 06 8f 1f bc a6 19 2c 3d 30 44 3e 3d c1 7e 10 bc
       -0.009738689 0.042016648 0.046451747 -0.008819283
000100 12 89 f9 3c 26 65 31 3d 6c f7 74 bc 19 04 df 3c
       0.030460868 0.043309353 -0.014951568 0.027223634
000110 cc 88 72 bd 62 b3 3c 3d 55 70 63 3d d6 ff 5a bd
       -0.05921249 0.04606951 0.05552705 -0.05346664
000120 49 ea 00 3d 54 7c aa 3b d5 f2 de bc 9c 12 b2 b9
       0.03147343 0.0052028093 -0.0272154 -0.0003396467
000130 8f fc a0 bc a7 d0 95 bc 4f 4f c9 ba 83 a3 85 3d
       -0.01965168 -0.01828797 -0.0015358719 0.06525328
000140 d4 4d 86 3d b2 5f 99 3c 16 f7 24 3c a3 2e 81 3c
       0.06557813 0.018722389 0.0100686755 0.015769308
000150 3f a6 50 bd a5 b6 71 3d fe 90 0f bd 4f 6b 28 bd
       -0.050939795 0.059012074 -0.035050385 -0.041117962
000160 94 78 7a 3d 84 c5 a3 3c ae cd a1 3c b6 d9 79 bb
       0.06115015 0.019991644 0.019751396 -0.003812415
000170 a0 bc 0b bd 2d 51 72 3d 87 75 0b bd 75 8b a1 3c
       -0.034115434 0.059159447 -0.03404763 0.019719819
000180 f4 2a ae bc 8f f9 bc bc 35 16 04 3d 57 32 d8 3c
       -0.021260716 -0.023068218 0.03224774 0.026391191
000190 2d 2f e4 3c 25 9d 07 3d 04 c5 ae 3b 42 30 91 3c
       0.027854526 0.03310885 0.0053335447 0.017723206
0001a0 dd e3 b5 3c 47 7f 6c bd 4b 18 46 3d bb 11 33 3d
       0.02220338 -0.05773857 0.04836301 0.04371808
0001b0 fc f6 36 3d 40 fd 1a bd e3 83 96 bc 12 19 57 3d
       0.044669136 -0.037839174 -0.018373435 0.052514143
0001c0 b2 68 2f bc d3 57 05 3d ff 8b 3f bd ee e1 0e bd
       -0.010706114 0.03255446 -0.04676437 -0.034883432
0001d0 99 6d b4 3c 59 22 12 3d db 99 4a bc da 5e de b9
       0.022024916 0.035677288 -0.012365784 -0.0004241381
0001e0 f8 cb 4a bd 6f 1e 01 3d 65 4c 7c 3d 1e 0f ad bc
       -0.049510926 0.031523164 0.061596293 -0.021125372
0001f0 41 79 03 3d e9 73 0d 3c 31 ca 27 3b 15 89 00 bd
       0.03209806 0.008633592 0.0025602693 -0.03138073
000200 98 86 47 3d ac 43 83 bc d2 7a 6c bd fb 07 44 bd
       0.048712343 -0.01602348 -0.057734318 -0.047859173
000210 68 cd 1e 3d 8a ce 3e bd 3b 60 67 bd ce 01 80 bc
       0.03877011 -0.04658369 -0.056488257 -0.01562586
000220 e8 55 80 3d 16 31 a2 bc b2 20 df 3b b8 79 1e 3d
       0.06266385 -0.019798797 0.0068093175 0.0386903
000230 53 54 dd bc 38 7b 3a bd 71 51 e2 3b 76 84 a0 bc
       -0.027017748 -0.045527667 0.006906681 -0.019594412
000240 39 1a 18 3d 6d c7 84 3d 9e c4 32 bd 08 64 6b bd
       0.037134383 0.0648335 -0.04364454 -0.057468444
000250 3a c4 e5 bc dc 62 33 3d 6e db 2f 3c 42 51 80 bc
       -0.02804767 0.04379545 0.010733468 -0.015663747
000260 61 ab e2 bc 05 8d 3f bc 6f f5 19 3d 2d c1 33 3d
       -0.02766961 -0.0116913365 0.03758758 0.0438854
000270 6a 56 41 bd b2 ce 72 bd 15 30 71 bd 94 07 17 3b
       -0.04720155 -0.05927915 -0.058883745 0.0023045288
000280 4e e7 83 3c a9 f1 cc bc bd 92 22 bd 52 d3 67 3c
       0.016101506 -0.025017576 -0.03969072 0.014149504
000290 1e 50 2e bd 2b 5e cf bc 1e d7 03 bc da 8f 50 bd
       -0.042556874 -0.025313457 -0.008046893 -0.050918438
0002a0 91 61 93 bc 84 5c 1c bd 53 04 27 3d 43 19 18 bd
       -0.01799086 -0.038174167 0.04077561 -0.037133466
0002b0 01 d6 0a 3d aa 84 67 bc 60 15 47 3d 6a 52 a8 bc
       0.033895496 -0.014130751 0.04860437 -0.02054711
0002c0 59 1a 29 3d d0 2a 48 bc e1 48 e0 bc 18 e9 60 3c
       0.041284893 -0.012217239 -0.027378501 0.013727449
0002d0 ec 40 3b bd 99 ac 7a 3d 36 44 37 bb cb 8b 45 bd
       -0.04571621 0.06119976 -0.002796424 -0.04822902
0002e0 f8 04 29 bd 95 43 fb bc 5e 23 a7 3c eb ef d4 3c
       -0.041264504 -0.030671874 0.020402607 0.025993308
0002f0 4d df 6f 3d 22 47 63 bd 04 45 b2 bc dd 2f 2b bc
       0.058562566 -0.05548776 -0.021761425 -0.010448423
000300 fc 36 60 bd 0e d7 5b 3d 67 d7 77 3c b9 c3 6d bb
       -0.054739937 0.05367189 0.0151270395 -0.003627999
000310 66 ff 74 bc 48 26 35 3d 8f 23 c4 3b d2 27 70 3d
       -0.01495347 0.04422596 0.005985684 0.058631726
000320 c1 93 cf 3b f8 8c 8f 3b 68 9d 1c bd 72 0d a5 3c
       0.0063347523 0.0043808185 -0.03823605 0.020148013
000330 bb ab 43 bd ce 8a 90 b9 20 29 44 3d 38 10 b7 3c
       -0.047771197 -0.00027569238 0.047890782 0.0223466
000340 15 ae 81 3c 83 40 ae 3c 4e 15 a4 bc 9a 56 76 bd
       0.01583008 0.021270996 -0.02002969 -0.060141183
000350 69 72 f7 bc 35 39 49 3b 97 a6 b2 bc 26 9e 5a bd
       -0.030205922 0.0030704264 -0.021807952 -0.05337348
000360 44 05 25 3d 2b c1 6b 3d 6f 0d 33 3b 1b 05 2d bd
       0.040288225 0.057557266 0.002732124 -0.042241197
000370 30 07 08 bc b6 af c1 3c b9 e9 c6 ba 06 45 7e 3d
       -0.008302495 0.023643356 -0.0015175856 0.062077545
000380 12 ab 59 3d 2c 86 8d bc ea 7c 20 3d 02 8a 41 bd
       0.05314166 -0.017275892 0.039181627 -0.047250755
000390 b1 27 42 3d 88 81 29 bc a1 b1 37 bd d6 33 10 3c
       0.047401134 -0.010345824 -0.044847135 0.008801421
0003a0 48 30 c2 3c 6b e4 b7 3c 4a 67 6e bd a5 de 5f bd
       0.023704663 0.022447785 -0.058203973 -0.05465569
0003b0 dd 91 5f 3d 18 c7 c5 3b 52 68 52 bc 64 a0 68 3d
       0.054582465 0.0060356967 -0.012842255 0.056793585
0003c0 7a 77 4c bd 8b 96 bf bc 3f 63 b8 bb f3 1d 07 bd
       -0.04991863 -0.023387214 -0.0056270654 -0.032987546
0003d0 ba ff 0a bd aa e4 fa bc ce cf e7 3c f5 a6 44 3b
       -0.033935286 -0.030626614 0.028297331 0.003000674
0003e0 46 db d6 bc 0b f1 97 bc c9 13 2d bd e9 81 83 3d
       -0.026227605 -0.018547555 -0.042255197 0.06421263
0003f0 8a df 2e 3d c5 62 e3 3c b7 ce 53 3b bf 1d 87 bc
       0.042693652 0.027757058 0.0032319257 -0.016493676

features.4.bias f4 [64]
000000 c9 6b a6 3c fa 90 19 3d 0e a6 fe 3b bf ed 1e 3c
       0.020315068 0.037491776 0.00777126 0.009700238
000010 f9 92 f9 3b 79 40 e0 3c c0 8e 70 3a 4b 5f 0d 3d
       0.0076163975 0.027374493 0.0009176545 0.034514707
000020 1f 39 b2 3c 13 4e 19 bd ea 63 f8 bc 94 bb 24 3d
       0.021755753 -0.037427973 -0.03032108 0.04021795
000030 49 03 21 bd 3a cd 6a 3d fd 90 5a bd 5c 08 29 bd
       -0.039309774 0.057324626 -0.053360928 -0.041267738
000040 cc 7b 4b bd 44 19 68 3d 30 85 c7 bc 1e 99 c3 3b
       -0.04967861 0.05666472 -0.024355501 0.0059691807
000050 02 c8 c4 3b f6 d3 08 3d b7 a7 ed bb 3a df 4a bd
       0.006005288 0.033405267 -0.007252659 -0.04952929
000060 00 43 28 bd 45 c0 3c bd 53 32 0f bd b7 3f 0d bd
       -0.04107952 -0.0460818 -0.034960102 -0.03448459
000070 1a 50 b5 3c 8d c8 23 bd 52 ba 1e bd 82 b9 2b bd
       0.022132922 -0.039986182 -0.038751908 -0.04192496
000080 14 be 1e 3d 2e 6b 08 3d bc 0d c3 3c 45 c0 4f bb
       0.03875549 0.03330534 0.02381026 -0.0031700295
000090 22 7e 22 3d 27 93 10 3c d8 7f 51 bd 28 eb 21 3d
       0.03967107 0.008824146 -0.051147312 0.039530903
0000a0 b4 b4 86 bb 2d f7 fc 3c 88 4d 2a 3d 99 c9 85 bc
       -0.004110897 0.030879581 0.041577846 -0.01633148
0000b0 5b 79 10 bc 55 e3 1e 3c 8f 02 49 bd 82 75 6e bd
       -0.008817996 0.009697755 -0.049074706 -0.058217533
0000c0 ca 2c 68 bd 0c 23 37 3d 45 41 1d 3d 9d 08 e6 bc
       -0.05668334 0.044711158 0.038392324 -0.028080279
0000d0 42 91 2d 3b 59 cf 01 bd a3 cb 62 3d 49 f6 f4 3b
       0.0026484285 -0.031691883 0.055369984 0.0074756485
0000e0 d5 1a 26 3d 22 19 37 3d 07 d1 38 bd 55 bd 83 b8
       0.040552933 0.044701703 -0.04512122 -6.2818326e-05
0000f0 83 11 dc 3c 82 07 f6 bc 1b d9 4e 3d 22 17 6a 3d
       0.026863819 -0.030032877 0.050500017 0.057150967

features.5.weight f4 [64]
000000 36 46 80 3f 4b a6 7f 3f 25 74 7f 3f 0b 1d 7f 3f
       1.0021427 0.9986312 0.997866 0.9965369
000010 c9 2d 80 3f 93 49 80 3f 77 a5 7f 3f ab 2b 80 3f
       1.0013973 1.0022453 0.99861854 1.0013326
000020 ae 05 81 3f ce 32 80 3f bb db 80 3f b3 d4 7f 3f
       1.0079858 1.0015504 1.0067056 0.9993393
000030 54 28 80 3f 43 8e 80 3f 70 03 81 3f cb 62 7f 3f
       1.0012307 1.0043415 1.0079174 0.9976012
000040 97 73 7e 3f ef bf 81 3f 4f df 7d 3f 7e fc 7e 3f
       0.99395126 1.0136698 0.99168867 0.9960402
000050 1c b7 7e 3f 5c 98 7f 3f c5 6f 7e 3f 2c 8c 80 3f
       0.9949815 0.99841857 0.99389297 1.0042777
000060 72 8d 7f 3f 51 59 7f 3f cc 3a 80 3f 5b 89 81 3f
       0.99825203 0.9974566 1.0017943 1.0120043
000070 f2 f0 7f 3f e4 cf 7e 3f d7 9a 7e 3f ee 86 7e 3f
       0.9997703 0.99535966 0.99455017 0.99424636
000080 ae 8f 7e 3f e2 58 7e 3f 3a 91 80 3f aa 43 80 3f
       0.9943799 0.99354374 1.004432 1.002065
000090 5d 63 7f 3f ff c6 7f 3f e7 74 7f 3f 10 4b 80 3f
       0.9976099 0.9991302 0.99787754 1.0022907
0000a0 9b 4b 7e 3f 68 3d 7f 3f 5e 2b 80 3f 32 08 7f 3f
       0.99334115 0.99703074 1.0013235 0.9962188
0000b0 97 f0 7e 3f 95 f3 80 3f 59 cb 7f 3f 0a a9 7e 3f
       0.9958586 1.0074335 0.9991966 0.99476683
0000c0 5e 93 7e 3f 7b 12 81 3f 26 06 80 3f 42 8e 80 3f
       0.99443614 1.0083765 1.0001876 1.0043414
0000d0 7a 59 80 3f 0c c4 7f 3f c5 ed 7f 3f c7 9d 7f 3f
       1.0027306 0.9990852 0.9997218 0.99850124
0000e0 6f f9 7f 3f c3 32 7f 3f 77 04 81 3f b7 24 80 3f
       0.9998998 0.9968683 1.0079488 1.0011204
0000f0 7c db 7f 3f 11 5c 7f 3f 18 61 80 3f 10 04 80 3f
       0.9994428 0.9974986 1.0029631 1.000124

features.5.bias f4 [64]
000000 eb 43 45 bb 9c 63 76 3b 5c ab f8 ba 4c 78 fc 39
       -0.0030100297 0.0037595993 -0.0018971968 0.00048154814
000010 33 73 a3 bb 7f 48 e0 bb cc 3a 12 bc b9 f8 de bb
       -0.004988098 -0.0068445797 -0.008925151 -0.0068045524
000020 7d 8e b2 bb d3 7a 90 bb f0 94 d0 bb 36 a1 30 bb
       -0.005449115 -0.004409173 -0.006365411 -0.0026951558
000030 6c 8a 50 bb 20 d5 b5 bb be c8 2e bb 7b f0 78 3b
       -0.0031820787 -0.005549088 -0.0026669945 0.0037985134
000040 6c 90 18 bc c8 45 8e bb db ea 00 bc ee 10 17 3b
       -0.009311777 -0.0043418147 -0.007868494 0.0023050862
000050 c4 91 c0 3b 1f 03 e1 bb c3 cc 4b ba 87 84 08 bc
       0.0058767516 -0.006866827 -0.00077743473 -0.008332378
000060 40 5a c5 3b 24 99 ae bb 4f 37 06 bc 32 19 88 bb
       0.0060227215 -0.0053283144 -0.0081918975 -0.004153394
000070 02 92 17 bb ea 0a 8a 39 9e d3 ec 38 6a 69 04 bc
       -0.00231278 0.00026329543 0.00011292774 -0.008081773
000080 14 a8 fa bb 9a 1b 46 bc a3 55 09 3b 8b fa a6 bb
       -0.007649431 -0.012091542 0.0020955584 -0.005095785
000090 78 0c f3 bb c2 6e 38 3b b1 62 71 bb da 5f 97 bb
       -0.007417258 0.0028142189 -0.0036832506 -0.0046195807
0000a0 68 ab 88 bb 52 e2 f8 bb cb 68 49 bc 10 66 d6 bb
       -0.004170824 -0.007595339 -0.012293051 -0.0065429285
0000b0 b9 9e a9 bb f8 0e 0d bc ff 4c 3c bc df ad 9e bb
       -0.005176392 -0.008609526 -0.011492967 -0.0048425044
0000c0 f8 15 d9 bb cb 52 6b bb 1a b8 0a 3b 75 ef b8 bb
       -0.0066249333 -0.0035907503 0.0021166862 -0.00564378
0000d0 06 97 f0 39 31 25 ad bb 63 74 d8 bb 5a 19 49 bb
       0.00045888888 -0.0052839746 -0.0066056713 -0.0030685277
0000e0 34 8b 2a bb f6 a7 b3 b9 36 24 1e bc 27 40 99 bb
       -0.0026022913 -0.0003426668 -0.009652188 -0.004676837
0000f0 64 ff 4e ba 1c b3 b7 3b 27 1f bc ba de 4b 13 bc
       -0.00078963325 0.0056060683 -0.0014352546 -0.008990256

features.5.running_mean f4 [64]
000000 4f 11 a7 3e 71 b3 50 be f9 72 ec 3d 86 c0 a8 3d
       0.32630393 -0.20380951 0.11545367 0.08239846
000010 8b 85 7d 3e 59 10 ba 3e 9e 4a 93 3e 02 05 ae 3e
       0.24757974 0.36340597 0.28767866 0.33988196
000020 11 81 70 3e 33 57 f6 3e bf 19 1b 3f 2d a3 f2 3e
       0.23486735 0.48113403 0.6058616 0.47390118
000030 f5 d5 b5 3e f0 c9 28 3f 55 97 2b 3e d3 94 cd be
       0.355148 0.6593313 0.16756947 -0.40152606
000040 b6 b2 ac 3e 68 8f b1 3e 25 53 39 be ad d1 f0 be
       0.33730096 0.34679723 -0.18098123 -0.4703497
000050 94 73 30 bf a0 38 b0 3e 63 22 07 bf 90 8b cf 3e
       -0.6892636 0.344182 -0.52786845 0.40536165
000060 57 6c 7c 3d b0 64 e3 bc 5c 87 05 3f 50 15 11 3d
       0.06162676 -0.027757972 0.52159667 0.035420716
000070 0f f1 dc 3e 11 99 0c 3e 04 6a a9 be 12 10 8a 3e
       0.43152663 0.13730265 -0.33088696 0.26965386
000080 09 43 19 3f 8a 1b 9e 3e e2 c0 ae be 82 26 3b 3e
       0.5986791 0.30880386 -0.34131533 0.18276408
000090 0c 42 c9 3e 01 bb 18 be be 49 a9 bd 78 17 83 3e
       0.39308202 -0.14915086 -0.08266018 0.25603843
0000a0 b3 05 e0 be 10 d7 7e 3f 0d ab 43 3f 02 44 ba 3e
       -0.43754348 0.9954691 0.7643288 0.3638001
0000b0 c2 f9 d3 be 1c 52 a1 bd a4 3c be 3e 7a dc c5 be
       -0.41401488 -0.07876989 0.3715564 -0.38644773
0000c0 6c 4b 86 3e ee 26 83 3d 95 c4 02 3e df 8b 2e 3f
       0.26229417 0.064039096 0.12770303 0.68182176
0000d0 15 c9 e3 3e 0e ce 43 3f 10 95 3c 3f ba 08 3f 3f
       0.4448935 0.7648629 0.7366495 0.7462269
0000e0 27 a1 76 be 9f 45 d8 be d5 c5 97 bd 2b 8d de 3e
       -0.24084912 -0.42240617 -0.0741078 0.43467078
0000f0 a6 3b 65 bd 98 a0 20 be 27 6f 83 be 6b f0 5c 3d
       -0.05596509 -0.15686262 -0.2567074 0.053940218

features.5.running_var f4 [64]
000000 98 6c b3 3e 03 7a de 3e 70 52 39 3e 4d e1 88 3e
       0.35043788 0.43452463 0.18097854 0.2673439
000010 e7 2c 97 3e 25 4c f7 3e 4a fc bf 3e 5f 99 d8 3e
       0.29526445 0.4830028 0.3749717 0.42304513
000020 c4 dc df 3e ce b1 c4 3e db 50 0f 3f 43 aa bb 3e
       0.43723118 0.38416904 0.5598275 0.36653337
000030 ec 21 6c 3e ec 66 1c 3f ac ea ed 3e ea 95 f3 3d
       0.23059815 0.61094546 0.46468103 0.11893828
000040 b1 1a 46 3f 99 7a bf 3e dc 4b a0 3e dd c6 ab 3e
       0.7738448 0.37398222 0.31307876 0.33550158
000050 99 34 02 3f 0e c4 08 3f 74 4e 89 3e cc f6 04 3f
       0.5086151 0.53424156 0.26817667 0.5193908
000060 82 87 8a 3e 04 e0 aa 3e c5 a1 02 3f 62 81 7d 3e
       0.2705651 0.33374035 0.5102809 0.24756387
000070 f8 e4 b4 3e e0 0f 1f 3e 3c 93 8f 3e 0d dd a0 3e
       0.3533094 0.155334 0.28042018 0.31418648
000080 b2 d7 8e 3e 5f b7 d6 3e 2e 05 d2 3e df c5 7a 3e
       0.27898937 0.41936776 0.41019577 0.24489544
000090 46 c4 b1 3e 56 40 ef 3d b0 d2 4b 3e 2c f6 9a 3e
       0.34720057 0.11682193 0.1990459 0.3026594
0000a0 d4 5d 21 3f 8a d3 3f 3f 11 b6 53 3f f0 7f 9e 3e
       0.63033795 0.7493216 0.82699686 0.30956984
0000b0 1d 4f 3e 3e 89 cf c5 3e fb ac f9 3e 79 51 42 3e
       0.18584867 0.386349 0.48764786 0.18976392
0000c0 01 4c a7 3e 83 45 8a 3e 3f 93 04 3e e1 93 38 3f
       0.32675174 0.27006158 0.12946795 0.72100645
0000d0 a9 fd ee 3e 46 e5 0b 3f 83 c0 5e 3e b9 2f 7a 3e
       0.46677902 0.5464672 0.21753125 0.24432267
0000e0 14 70 98 3e 9c c7 83 3e ef 8f d2 3e 5e 0a 42 3e
       0.2977301 0.25738227 0.41125438 0.18949267
0000f0 56 a3 9f 3e d2 42 a4 3e ae 8d 05 3e 37 fc 82 3e
       0.31179303 0.3208223 0.13042328 0.2558305

features.8.weight f4 [128, 64, 3, 3]
000000 0e 3c 01 3d dd 8b b6 38 c1 2c 19 bc 5a e7 e9 3b
       0.031551413 8.704488e-05 -0.009349049 0.007138175
000010 66 9c da bc c4 14 ed 3c 4b dd 11 bc b1 24 13 3d
       -0.026685905 0.028940566 -0.008902858 0.035923664
000020 95 9e fb 3c e0 78 94 bc f5 bb 2f bd 9f 46 83 3b
       0.030715266 -0.018124044 -0.04290386 0.0040062214
000030 94 54 b0 bc bb 0d 0d bb da 2b a3 bb f4 4b de 3b
       -0.021524705 -0.0021523077 -0.0049795927 0.0067839567
000040 89 57 3c 3c af 27 18 3d 6f 74 18 bd e9 a8 80 3c
       0.011495479 0.03714722 -0.037220415 0.015705543
000050 c5 15 0c 3d d8 e8 f9 3c 61 8e 49 3c 25 0f 29 3c
       0.03420045 0.030506536 0.012302012 0.010318552
000060 66 b4 d2 3b 2c 2b 8d bc e2 65 20 bc 2b ad 18 bd
       0.0064301966 -0.0172325 -0.009789916 -0.03727452
000070 e1 19 f6 bc 84 79 0e 3d af c1 50 bc b7 1d e1 3c
       -0.030041637 0.034783855 -0.01274149 0.02747999
000080 ac 31 ed bb 62 8b 26 bc a3 da dd 3c d8 ac 26 3d
       -0.0072385874 -0.010165067 0.027081793 0.04069218
000090 5e 99 2f bd 39 35 40 3b cc bc bf 3c 3b 9e a4 3c
       -0.04287087 0.0029328598 0.023405455 0.020094981
0000a0 dc 76 b0 ba 5e 2c 8e ba 2b 00 f9 3c de 91 14 3d
       -0.0013463157 -0.0010846963 0.030395588 0.036271922
0000b0 eb f0 7a bc 28 f8 6f bb 83 04 2f 3c 85 43 54 3c
       -0.015316228 -0.0036616419 0.010682228 0.012955551
0000c0 64 91 ce bc c7 7c 30 3c 49 c0 53 3c e6 0a 35 bd
       -0.025215812 0.010771937 0.012924262 -0.044199847
0000d0 e9 60 b1 bc d5 5f 55 3b 77 ac 8a bc 64 55 73 3c
       -0.021652656 0.003255834 -0.01692794 0.014851902
0000e0 e1 e0 8e 3c fd 4c 2d bc b6 69 32 bd 55 ab 6f 3c
       0.017441215 -0.0105774375 -0.043557845 0.014628251
0000f0 5f 31 0a 3d 59 cc 7c bc e5 fc 02 bd d9 6e 5a 3c
       0.03373849 -0.01542958 -0.03197946 0.013332092
000100 c1 7a b0 3c cf 33 c7 bc 49 45 b2 bc 7e f0 2a bd
       0.021542909 -0.024316696 -0.021761553 -0.041733257
000110 f3 a7 00 3d dd 6a f5 bc 9b c6 fa 3c 94 63 8a 3c
       0.03141017 -0.029958183 0.03061228 0.016893186
000120 60 18 c5 bb 96 fe af 3c 9e c3 ff bc 21 f7 c6 bc
       -0.0060148686 0.0214837 -0.031221207 -0.024287762
000130 69 3d de 39 ab 15 0f bd ef 53 8f 3b 80 5a 3d bd
       0.00042388894 -0.034932774 0.0043740193 -0.046228886
000140 9f 0c 94 3c 4d 6c 7f 3b 35 96 0a bc 5c a3 14 b9
       0.018072424 0.0038974464 -0.008458664 -0.00014175236
000150 86 58 c0 3c b6 f4 28 3d 79 e7 fa bb 76 9f 63 bc
       0.023479711 0.041249 -0.007656988 -0.013892999
000160 cb ba 1c 3d b6 13 09 3d 9b aa 90 3b ff 0e e6 3b
       0.038264077 0.033466063 0.004414869 0.0070208306
000170 d3 1e 16 bd 29 05 63 3b b4 98 03 bc 5f cf b7 3c
       -0.03665049 0.0034640527 -0.008032013 0.02243775
000180 c0 58 67 ba 2a 7e 2d bd c6 a0 ad 3b 6d 59 26 bc
       -0.00088251755 -0.042356648 0.0052987067 -0.010153157
000190 2d 5e 9b 3c 05 44 08 bd fa 4d 2b bd b7 4f 13 bd
       0.018965805 -0.033267993 -0.04182241 -0.035964694
0001a0 3e 03 fb 3b e1 0f b1 bc 3d 21 c0 3c 56 47 02 3c
       0.0076602986 -0.021614017 0.02345335 0.007951578
0001b0 fe 5f cb 3c 31 17 6e 3c 66 0b 23 bd 9b a7 12 3b
       0.024826046 0.014531896 -0.039805792 0.0022377733
0001c0 27 bb a4 3c 3c 6a e5 bb 6d 4d 79 3a 89 56 28 bc
       0.020108772 -0.0070011895 0.00095101335 -0.010274538
0001d0 82 03 d6 bc dc 3e 60 ba 7e 5b c3 bc 1b 68 91 bc
       -0.02612472 -0.00085542887 -0.023847338 -0.017749837
0001e0 94 6a 46 3c bc 0f 1f bd 4e 34 07 3b 1a 17 8a bc
       0.012110371 -0.038833365 0.0020630541 -0.016856719
0001f0 e3 c5 d0 bb 63 ec d8 3c c3 ba e8 bb 1e 12 c2 bc
       -0.006371246 0.026479905 -0.007102342 -0.02369028
000200 1e eb 8f bc 84 ca b4 3c 45 9a 0c bd 68 9f bf bc
       -0.017568167 0.022069223 -0.03432681 -0.02339144
000210 7f 0f bd bb 7c 15 d6 bb f3 5d 43 bc 77 67 3a bd
       -0.0057696695 -0.006533323 -0.011924255 -0.045508828
000220 20 25 8a 3b 94 df a2 bc f8 bd f9 3c 70 40 a0 bb
       0.0042158514 -0.019882001 0.030486092 -0.004890494
000230 56 62 e9 bc 01 81 a2 bc 22 aa 75 3c d6 23 ad ba
       -0.028489273 -0.019836904 0.014994176 -0.0013209532
000240 0a 80 85 bc f6 f2 18 3c 9a 28 01 3c b0 0f c2 3c
       -0.016296405 0.00933527 0.007883215 0.023689121
000250 42 f7 4b 3c 6f 56 f4 3c cd 90 43 bd 3f 28 0f 3c
       0.012449088 0.029826371 -0.047745515 0.008737623
000260 26 09 23 bd 4b b4 13 bd 28 65 79 3c 97 ed 30 bd
       -0.039803647 -0.036060613 0.015221871 -0.043195333
000270 10 a6 d3 3c 51 65 d2 bb 17 dc 61 3c ac 11 c1 3c
       0.02583602 -0.0064207693 0.013785384 0.023567997
000280 2b 0d f7 3c 43 0f cc ba 8c 7a 37 3b e8 91 16 bd
       0.030157646 -0.0015568513 0.0027996628 -0.03676024
000290 ee e9 06 bd 6a c5 21 3d 97 7d d1 3c 92 f1 ce bc
       -0.032937936 0.03949491 0.025572581 -0.025261674
0002a0 93 02 29 3d 29 37 0f 3d 9a ef 3d 3c 0e e4 07 bd
       0.04126222 0.034964714 0.01159277 -0.033176474
0002b0 f6 98 d5 3c 64 83 9a bb 97 84 a9 3c e1 20 fe ba
       0.026073914 -0.00471537 0.020693107 -0.0019388461
0002c0 57 76 5b 3c dc ae c6 3c c9 19 ff 3a ca 40 2b 3d
       0.013394914 0.024253301 0.0019462641 0.041809835
0002d0 3c a3 c7 3c d8 2e 1c 3c d0 21 c4 3c ae 8f 0c bd
       0.024369828 0.009532653 0.023941904 -0.03431671
0002e0 9e 4f fb 3b 10 69 ed 3c b3 ea d4 3c a5 d0 fc 3c
       0.007669403 0.028980762 0.02599082 0.030861208
0002f0 c5 27 0b bd e9 1b 3a bd fe de 1d 3c fb 16 b5 bc
       -0.033973474 -0.045436773 0.009635685 -0.022105685
000300 6c 8b d9 3c 8a 9f 9f 38 73 47 19 3d 31 6a 15 3c
       0.02655574 7.611427e-05 0.037421655 0.009119556
000310 00 bb 06 3d 09 b8 a5 bc c0 ef 98 bc 1b 3d 06 bb
       0.03289318 -0.020229356 -0.01866901 -0.00204832
000320 92 f9 d5 3c 41 bb be 3c cc 26 38 bc 76 0b 14 bd
       0.026119981 0.023282649 -0.011239719 -0.036143743
000330 4e ce 19 3d 4f 26 18 3d fc 87 13 3d 39 34 3a bd
       0.037550263 0.03714591 0.036018357 -0.04545996
000340 e5 0f 55 3c cd f3 95 ba fb 87 20 bc 77 f0 93 3c
       0.013004278 -0.0011440456 -0.009798045 0.018058999
000350 40 a3 34 bd 7e 46 14 bd 27 5b fc 3c ba 57 80 bc
       -0.044101 -0.03620004 0.030805184 -0.015666831
000360 63 c4 1b bd 28 aa d3 3c a1 09 c2 3b 3e f1 dd 3a
       -0.038029086 0.025837973 0.005921558 0.0016932858
000370 e7 2c 6e 3c ba 7e 14 3d 90 15 ab 3c ca 8d 13 bd
       0.014537073 0.03625367 0.020884305 -0.036023892
000380 f0 4d 2a bd 3a 35 3b bc f6 e1 78 bc 62 76 a3 bc
       -0.041578233 -0.011426264 -0.015190592 -0.01995391
000390 bc 53 9f 3c a2 bb c1 39 f5 9c 56 bc 13 c8 00 bd
       0.019449107 0.00036951626 -0.013098945 -0.031440806
0003a0 80 7d 5e 3b 6f 45 1b bc 59 89 78 3c 4d 83 b6 3b
       0.0033949316 -0.0094770035 0.015169465 0.0055698515
0003b0 22 e0 2a 3b 45 fc 03 3d 07 2c d8 3c b4 92 c1 3c
       0.0026073535 0.032223005 0.026388181 0.023629524
0003c0 0c dd 8b bb 95 df 02 bd 37 f3 55 3c 22 78 fd 3c
       -0.004268294 -0.031951506 0.013058475 0.030941073
0003d0 5f bf 0b bd 4d 6d 36 bd 8c 79 3b bd a3 b4 8b 3c
       -0.034118053 -0.04453783 -0.045770213 0.017053908
0003e0 2f a9 0d bd 28 ae a2 bc bf d3 26 3c b7 7c 9e bb
       -0.034585174 -0.019858435 0.01018232 -0.0048366445
0003f0 df 92 8b bc f8 e0 41 bd 29 71 b4 3c d8 3d 0c bd
       -0.017037807 -0.047333688 0.022026615 -0.034238666

features.8.bias f4 [128]
000000 19 e4 35 bc 4f 74 87 bc 99 56 3d bc c3 f7 2f 3d
       -0.011101746 -0.016534952 -0.011556291 0.042960893
000010 c7 d3 b0 3c c4 71 d2 3c ab d1 89 3c 15 bb 9b bb
       0.021585358 0.025689013 0.01682361 -0.0047525265
000020 72 f2 c0 3c 18 b1 1d bd 67 09 ce bc 36 b2 9c 3b
       0.023553107 -0.038498968 -0.025150968 0.0047819866
000030 29 44 39 bc 4c e5 f5 3c 99 6b 56 bb 74 ee 8d bb
       -0.011307755 0.030016564 -0.0032717942 -0.0043314043
000040 ed ed 0c bd 81 60 95 bc 33 2e c4 3b ff 13 00 3d
       -0.03440659 -0.018234493 0.0059869527 0.03126907
000050 4c 8c 29 3c f2 c9 e1 3c df 0f fb bc 4d 0c 29 bd
       0.010348391 0.027562115 -0.030647216 -0.041271497
000060 c2 33 fd 3b 5f 4e 13 bd 3f 14 6a 3c 8f fc 09 ba
       0.0077271173 -0.035963412 0.014287054 -0.00052637694
000070 e3 37 90 3b 52 89 0b 3b f0 35 16 bc a0 16 83 bc
       0.0044011935 0.0021291566 -0.009168133 -0.016002
000080 6b c3 0c 3c b5 fc a8 bc dc ae 1e 3d f6 57 e9 bc
       0.008591513 -0.020628313 0.038740978 -0.028484326
000090 15 c6 c2 bc 63 e1 47 3c 63 65 c2 3c 01 50 09 bb
       -0.023776093 0.0121997325 0.023729986 -0.0020952227
0000a0 58 3f 29 bd b5 39 69 bc c2 76 1b 3d 43 1d a0 bc
       -0.041320175 -0.01423495 0.037955053 -0.019545203
0000b0 f1 a5 0a 3c 85 e1 05 bd 0b 7e 15 bc 5d 81 95 3c
       0.008462415 -0.032685775 -0.009124289 0.018250162
0000c0 39 2d 90 3c 96 8d d0 3c c3 2a cc 3c 4a 38 9c 3c
       0.017599689 0.025458138 0.024922734 0.01906981
0000d0 38 11 5d 3a bc 0b c9 3c 1b a8 02 3d 68 ce 49 3c
       0.0008433047 0.024541728 0.0318986 0.0123172775
0000e0 d5 db 04 3c af f5 bc bc 53 0f 4a 3c ed 83 9b ba
       0.008109053 -0.02306637 0.012332755 -0.0011864878
0000f0 04 c2 90 bc 28 6b 12 bd 08 44 27 bd 67 a6 02 bd
       -0.017670639 -0.035746723 -0.040836364 -0.031896975
000100 ad 2a 08 bd e2 fc 2c 3c c5 0d 15 3d 74 7f 00 bd
       -0.033243824 0.010558339 0.036390085 -0.03137155
000110 4b e0 2e 3d 09 7a f8 bc a0 c0 8c 3c 67 cc 15 3d
       0.04269437 -0.030331628 0.017181695 0.036571886
000120 bb 3a 9a 3c 90 59 d6 bc 96 64 2e 3b 47 20 06 bd
       0.018826833 -0.026165754 0.0026610247 -0.032745626
000130 63 b3 20 bc fe c7 5b bc 84 a0 c6 bc 9e f1 00 bc
       -0.009808394 -0.013414381 -0.024246462 -0.007870106
000140 e1 cd e6 3a 28 46 08 bd 86 a5 ce bb 99 c1 dc 3c
       0.0017608964 -0.03327003 -0.006306353 0.026947783
000150 ae 40 1a 3d ea 39 f8 3c 8c 48 01 39 92 ef 0a 3c
       0.03765934 0.030301053 0.00012329424 0.00847997
000160 95 db 00 bc f3 8b af 3a 21 39 03 3d a0 25 8c 3c
       -0.007864852 0.0013393149 0.032036904 0.017107785
000170 d8 d8 0d bd f3 5f 07 3d 9c 89 08 bc 0b 47 a4 3c
       -0.034630626 0.03305049 -0.00833359 0.020053407
000180 c2 e5 19 bd ec 03 dc 3c c7 4f 36 3c 2b c5 97 3b
       -0.03757263 0.026857339 0.011127419 0.0046316586
000190 9f 46 b2 bc 98 2d 30 bd e7 19 01 3d 86 e9 54 38
       -0.02176219 -0.04301223 0.031518843 5.0762224e-05
0001a0 49 5e 1b bd 0e 7b bc bc 34 79 40 3c 65 a0 cc 3c
       -0.037931714 -0.023007896 0.011747647 0.024978826
0001b0 57 d3 04 3d 92 e3 6c 3c 0e 59 e5 bc d2 05 8c 3b
       0.032428112 0.014458554 -0.027996566 0.004273155
0001c0 29 e6 1b 3d c9 30 79 bc 33 45 d7 bc 70 e8 13 bc
       0.038061295 -0.015209385 -0.026278114 -0.009027585
0001d0 a4 bd 08 3d 96 15 20 3d 00 38 5e 3c f9 de 0c 3c
       0.03338398 0.039083086 0.013563156 0.008598083
0001e0 2e f6 10 3d 8c fe da bc ba 79 6e 3c 22 86 ae 3c
       0.035391025 -0.026732706 0.014555389 0.021304194
0001f0 a5 76 de 3c 0c 6a 1e 3d 15 6a 39 bb 58 66 05 bd
       0.027156183 0.038675353 -0.002829199 -0.032568306

features.9.weight f4 [128]
000000 34 57 7e 3f b0 4a 81 3f 26 60 80 3f c3 1e 80 3f
       0.9935181 1.0100918 1.0029342 1.0009388
000010 01 48 7f 3f 95 f1 7f 3f ad 1d 80 3f bd d7 7e 3f
       0.99719244 0.99978 1.0009056 0.9954794
000020 bd 9c 7f 3f 2c ad 7d 3f 5f 6d 7e 3f 27 5b 7f 3f
       0.9984854 0.99092364 0.9938564 0.9974846
000030 bd 4a 80 3f a6 2e 80 3f b7 3a 7f 3f c7 4b 80 3f
       1.0022808 1.0014236 0.99698967 1.0023125
000040 fc 5c 7f 3f d0 17 7f 3f 0d d7 80 3f 7a dd 7d 3f
       0.9975126 0.9964571 1.0065628 0.9916607
000050 8b 84 7e 3f 87 41 7d 3f ec fe 7c 3f 81 95 7e 3f
       0.99420995 0.9892811 0.9882648 0.99446875
000060 d2 9b 7d 3f a7 1f 80 3f 47 20 7e 3f 91 b3 7e 3f
       0.9906589 1.000966 0.99268 0.99492747
000070 bc 68 80 3f d6 33 7d 3f f3 d3 7d 3f e7 a6 7f 3f
       1.0031962 0.9890722 0.99151534 0.9986405
000080 d9 a5 7b 3f d9 b1 7f 3f 6d 7a 7f 3f 43 6c 7d 3f
       0.9829994 0.9988075 0.9979618 0.9899332
000090 9d fa 7d 3f 73 08 7d 3f 24 cf 7d 3f d8 69 80 3f
       0.9921053 0.9884102 0.99144197 1.0032301
0000a0 40 cf 7f 3f f0 62 7f 3f 25 91 7f 3f 1e c2 7d 3f
       0.99925613 0.9976034 0.9983085 0.99124324
0000b0 ef 54 7e 3f 94 5b 7f 3f 20 e5 7d 3f af 24 7f 3f
       0.9934835 0.9974911 0.9917774 0.9966535
0000c0 29 dc 7f 3f cb cc 7d 3f f9 5f 7e 3f d9 4c 7f 3f
       0.9994531 0.99140614 0.9936519 0.99726635
0000d0 a5 9d 7e 3f 1b b0 7d 3f 34 e5 7d 3f 8c e0 7d 3f
       0.99459296 0.9909684 0.9917786 0.99170756
0000e0 6e c6 7f 3f 2c e5 7d 3f 91 d5 7e 3f d9 6d 7e 3f
       0.99912155 0.99177814 0.99544626 0.99386364
0000f0 7c 65 80 3f 2e 55 80 3f 8b 0a 80 3f ec 1e 80 3f
       1.003097 1.0025995 1.0003217 1.0009437
000100 d9 7a 7d 3f fd 30 80 3f a9 ea 7e 3f 42 fe 7e 3f
       0.99015576 1.001495 0.99576813 0.99606717
000110 3c 71 7d 3f c6 a9 7e 3f 87 c8 7e 3f 60 ab 7f 3f
       0.99000907 0.99477804 0.9952473 0.9987087
000120 af e3 7d 3f 7f 45 80 3f b2 11 80 3f 65 dd 7d 3f
       0.9917554 1.0021209 1.00054 0.99165946
000130 12 10 80 3f 83 66 7f 3f a5 4b 7e 3f d3 ac 7d 3f
       1.0004904 0.99765795 0.99334174 0.99091834
000140 5d 13 7d 3f 72 ee 7e 3f fc b8 7f 3f e2 c1 7e 3f
       0.9885767 0.9958259 0.9989164 0.9951459
000150 b2 dc 7e 3f ee 73 7e 3f c4 72 7e 3f 4e 15 7e 3f
       0.99555504 0.99395645 0.9939387 0.9925126
000160 e1 e2 7f 3f 46 bc 7f 3f cc 6a 7e 3f 59 51 7e 3f
       0.99955565 0.9989666 0.9938171 0.99342877
000170 56 e2 7e 3f c3 48 80 3f dd ea 7d 3f 78 7b 7c 3f
       0.9956411 1.0022205 0.991865 0.986259
000180 bf 94 80 3f 04 fe 7e 3f 4c 25 7e 3f b1 34 80 3f
       1.0045394 0.9960635 0.9927566 1.001608
000190 5d 39 80 3f 4c 25 7e 3f 7e f9 7e 3f 34 c3 7f 3f
       1.0017506 0.9927566 0.99599445 0.9990723
0001a0 a7 ff 7c 3f 38 7d 7e 3f 67 fe 7d 3f a3 b9 7e 3f
       0.98827595 0.9940982 0.9921631 0.9950201
0001b0 74 2f 7f 3f e3 78 7f 3f 24 97 80 3f f2 cd 7e 3f
       0.9968178 0.99793833 1.0046124 0.99533
0001c0 5d 9a 7d 3f 17 c2 7e 3f 8e dc 7f 3f c8 58 7d 3f
       0.99063665 0.9951491 0.99945915 0.98963594
0001d0 a9 e3 7d 3f eb 1b 7e 3f 97 c6 7e 3f ae 3b 80 3f
       0.99175507 0.9926135 0.99521774 1.0018213
0001e0 1d 2c 80 3f d7 28 80 3f 18 93 7f 3f 9b e1 80 3f
       1.0013462 1.0012463 0.9983382 1.0068849
0001f0 9e 6a 80 3f fd 6b 7e 3f 45 a4 7e 3f 71 84 7e 3f
       1.0032537 0.9938353 0.99469405 0.9942084

features.9.bias f4 [128]
000000 de c3 65 bb af 23 28 3b e0 71 67 b7 10 b0 3b 37
       -0.0035059373 0.0025656035 -1.37951865e-05 1.1187061e-05
000010 fd c4 cf ba d5 06 c6 b9 56 7d b7 ba ac 69 0e bc
       -0.0015851554 -0.00037770593 -0.0013999145 -0.008692186
000020 c2 83 1a bb 9e 0e 10 bc 5a 3d 8f bb 2b d9 ae ba
       -0.002357707 -0.0087925475 -0.0043713273 -0.0013339868
000030 32 56 8b 3b 46 70 ad bb be 14 46 bb 00 82 95 3b
       0.0042522186 -0.005292925 -0.0030224766 0.0045626163
000040 81 4a 9c bb 9a 34 49 bb b1 01 86 3b 04 33 30 bc
       -0.0047696237 -0.003070152 0.004089557 -0.010754351
000050 c5 5a b5 bb 6a f7 3f bc b1 2a 1a bc 36 5f 8e bb
       -0.005534502 -0.011716703 -0.0094095925 -0.004344846
000060 b9 a5 2f bc 4c 70 71 bb 14 bd e1 bb 6b 0b 6a bb
       -0.010720664 -0.0036840616 -0.006888995 -0.0035712372
000070 18 99 e1 38 37 f0 1d bc 88 9e d9 bb e4 65 97 bb
       0.00010757352 -0.009639791 -0.006641213 -0.0046203006
000080 2c 42 82 bc da 36 bc b9 43 b6 83 b9 94 c9 2b bc
       -0.015900694 -0.00035899022 -0.00025122063 -0.010485072
000090 8a e8 e4 bb b2 17 28 bc 3b 88 14 bc 88 80 4e ba
       -0.0069857286 -0.010259556 -0.009065683 -0.0007877429
0000a0 cd 44 1a b9 c1 63 37 b9 f1 51 d4 b9 5f c4 2d bc
       -0.00014712215 -0.00017489401 -0.00040496842 -0.010605901
0000b0 bb af 26 bc 24 f1 f1 39 ca 2e 07 bc 21 5b b5 ba
       -0.010173733 0.00046146766 -0.0082509015 -0.0013836363
0000c0 5b c0 44 bb 48 b7 f1 bb b2 c3 89 bb 37 64 98 bb
       -0.003002188 -0.007376585 -0.004204237 -0.0046506184
0000d0 9d 70 72 bb 0b 25 20 bc 97 94 1b bc e2 51 ff bb
       -0.0036993392 -0.009774457 -0.009495876 -0.0077917436
0000e0 ec fb 87 bb 8d 94 e7 bb 09 13 cb bb c1 53 99 bb
       -0.0041499045 -0.007067269 -0.0061973375 -0.0046791737
0000f0 3a 6a 1b 3a 68 fd 96 3b 96 5f 54 3a 37 dd 28 3a
       0.000592861 0.004607845 0.00081014016 0.0006441655
000100 9e 52 6c bc 1a 6f ec 3a 30 db 22 bb 90 ce c5 ba
       -0.014423994 0.0018038482 -0.0024849884 -0.0015091468
000110 7c 69 cc bb 5a 8f 8a bb a6 19 f6 bb a3 22 b1 bb
       -0.0062381607 -0.0042285146 -0.0075103818 -0.0054057403
000120 75 7c c0 bb 99 8d 67 3b 77 6e 7e ba 1c c8 1c bc
       -0.0058742114 0.0035332202 -0.00097057916 -0.009569194
000130 4e 8f 82 3a 34 7f 0c bb fe 73 d2 bb 80 c7 f0 bb
       0.0009960921 -0.0021438124 -0.0064225188 -0.007348001
000140 74 07 26 bc 92 78 41 bb 21 08 94 ba 76 fc c6 bb
       -0.010133613 -0.0029521328 -0.0011293927 -0.006072576
000150 1e 50 5b bb 38 cc 87 bb 54 16 98 bb c0 08 eb bb
       -0.0033464502 -0.004144218 -0.0046413336 -0.007172674
000160 44 6a 67 3a e6 d3 00 bb 21 0a 61 bb 27 f0 b1 bb
       0.00088277855 -0.0019657551 -0.0034338313 -0.0054302397
000170 d8 f7 30 bb 1c 97 05 b9 11 37 06 bc ba aa 82 bc
       -0.0027003195 -0.00012740161 -0.00819184 -0.01595055
000180 2d 07 7a 39 b7 b7 bf bb 7f f8 8c bb 8a 98 db 3a
       0.00023844531 -0.005850758 -0.004302084 0.0016753834
000190 10 6f 7e 3a 97 f1 e5 bb 6b 56 7d bb 0f 27 35 ba
       0.00097058807 -0.007017325 -0.0038656245 -0.0006910422
0001a0 84 a5 04 bc bb 7e e2 bb 38 e8 08 bc bd 5e e3 bb
       -0.008096103 -0.00691208 -0.0083561465 -0.006938784
0001b0 87 45 21 bb ff 7a 81 bb 8b b7 48 3b fb 3c 43 ba
       -0.0024608092 -0.00395143 0.0030626978 -0.00074477465
0001c0 d0 96 1b bc 6a 04 b5 bb 40 c6 9b 3a dd 86 39 bc
       -0.009496406 -0.005524208 0.0011884645 -0.011323658
0001d0 9d da df bb 61 5c 00 bc 22 da 8d bb 75 54 a4 ba
       -0.0068314807 -0.007834525 -0.004328982 -0.0012537377
0001e0 4e ad 8d bb 98 7b 06 bb a0 04 51 bb 0d f7 91 3b
       -0.004323638 -0.0020520445 -0.0031893626 0.0044544996
0001f0 2b ee 54 bb 81 f9 8c bb bb 40 d3 bb c0 51 c4 ba
       -0.0032490592 -0.004302204 -0.0064469255 -0.0014977977

features.9.running_mean f4 [128]
000000 c2 ec fb be 16 0a f3 3e 77 10 b1 3f 1f 6b 87 3f
       -0.4920407 0.47468632 1.383315 1.0579566
000010 f1 6c 82 bf db 8f 73 bf 58 34 ab 3f df eb 95 3f
       -1.0189496 -0.9514138 1.3375349 1.1712607
000020 d3 a4 bb 3f 45 86 7b bf f5 4d 14 bf db 0b 25 bf
       1.4659675 -0.98251754 -0.57931453 -0.64471215
000030 6f 46 3d bf d8 2a 72 3f 00 33 28 3f 13 99 a8 bf
       -0.739356 0.94596624 0.6570282 -1.3171715
000040 54 c4 80 3f 4b 2f b6 3e 97 2a a2 3f 76 84 02 3f
       1.0059915 0.35582957 1.2669247 0.5098337
000050 d4 72 aa bf 43 96 b8 3e d4 28 8a bf 67 57 03 bf
       -1.3316293 0.3605214 -1.079371 -0.5130524
000060 a3 91 99 3f 89 43 97 3f 50 e0 0e bd b1 e6 35 3f
       1.199757 1.1817485 -0.03488189 0.7105513
000070 6b 8d 8a 3f 76 47 06 3f aa 42 80 bf ae d3 5a 3f
       1.0824407 0.5245279 -1.0020344 0.8547925
000080 6f 01 6f bf 35 f1 80 bf 39 55 f9 3e 82 fc 92 bf
       -0.9336156 -1.007361 0.48697832 -1.1483309
000090 b1 96 bb be f9 46 02 bf 4e 1f 9c be 3f 9b 5b 3f
       -0.36638406 -0.50889546 -0.30492634 0.8578376
0000a0 a5 e2 c6 bf af 1f e6 be ed 17 a6 bf b9 38 7e 3f
       -1.5537916 -0.44946048 -1.2976052 0.993053
0000b0 62 eb d9 bf 48 13 72 bf 7f f1 09 3f 1a f3 3f bf
       -1.7024958 -0.9456067 0.5388412 -0.7498032
0000c0 06 7e f1 3e 1b 0c 0e bf 85 67 c5 bd 64 2a c6 be
       0.4716646 -0.5548722 -0.096388854 -0.38704216
0000d0 0f 6e 03 bf ad f4 4e bf e0 aa 8a be fc 42 bc be
       -0.5133981 -0.80842096 -0.27083492 -0.36769855
0000e0 d5 c4 72 3f e5 27 0e 3f 9d c9 fe 3e cd ae 39 3d
       0.9483159 0.55529624 0.49763194 0.04533272
0000f0 ff 42 91 3f a4 f1 70 bf 8d 46 68 bf 2e 72 7b 3e
       1.134857 -0.94118714 -0.9073265 0.24555275
000100 37 bc f0 be e0 f7 24 3f 6a 4c 34 bf a9 d5 47 3f
       -0.47018597 0.6444073 -0.704291 0.78060395
000110 0f af 65 3e a7 e3 54 bf 8e 35 48 3f 06 c2 41 3f
       0.22430061 -0.8315987 0.7820672 0.7568668
000120 67 b9 23 3e 7a 74 94 bf eb d7 78 3f bd ef 51 3f
       0.15988694 -1.1598046 0.97204465 0.82006437
000130 eb 49 31 3f d0 06 e7 bf 6e 24 e9 3e 07 3f 6d bf
       0.69253415 -1.8048954 0.45535606 -0.926743
000140 4c 72 3f bf 78 e1 9a bf a4 8e e3 3e 65 0e 3a 3f
       -0.7478378 -1.2100058 0.44444764 0.72678214
000150 39 07 72 bf e5 fc 40 bf 88 eb f1 bd c6 bc 68 bf
       -0.9454227 -0.75385886 -0.11812502 -0.90913045
000160 38 97 89 bf cc 81 ab bf 01 7c aa be be da 7b bf
       -1.0749273 -1.3398986 -0.33297732 -0.9838065
000170 77 fa a3 bf 2a 16 2c 3f b1 ef 32 bf 80 cf 82 3f
       -1.2810811 0.6722132 -0.6989699 1.0219574
000180 69 57 5f 3f 14 5e 57 bf 10 25 05 bf 4e f8 bf bf
       0.8724275 -0.84127927 -0.5200968 -1.4997652
000190 65 ae bc 3f 06 0e 26 bf 63 a1 20 3f 59 1a 1e bf
       1.4740721 -0.6486515 0.62746257 -0.61758953
0001a0 7a 4d c1 be 31 e2 41 3f c2 af c6 be 89 14 2e 3f
       -0.37754422 0.75735766 -0.38805968 0.68000084
0001b0 f3 0a aa bf 15 10 6d 3f ab 90 52 3f 45 43 88 be
       -1.3284591 0.92602664 0.82251996 -0.26613823
0001c0 6a 9a 87 3e 7c 35 28 3d 85 57 73 bf ae 07 95 bf
       0.26484996 0.04106663 -0.9505542 -1.1642969
0001d0 bb bb 2b bf e4 e6 4b 3f 79 31 37 3f 1d a5 40 3f
       -0.6708333 0.79649186 0.71559864 0.7525194
0001e0 20 98 79 3f 02 8c 96 3f cc 46 bc bf c3 2a 88 3f
       0.9749775 1.1761477 -1.4709105 1.063805
0001f0 c3 73 9e 3f 2f 5a 52 3f 12 78 a4 3c 32 a7 75 3f
       1.2379078 0.8216886 0.020076785 0.95958245
