models/best_triplet_model.pth (torch, 114265 bytes, 6 tensors)

conv_layers.0.weight f4 [32, 3, 3, 3]
-0.0014635053 0.034004916 -0.16336335 0.071394205 -0.033499777 0.0066599227 0.03549651 0.003461008
-0.0047040666 -0.07515073 0.06545909 -0.089589596 -0.13111486 -0.09335081 0.10653034 0.09200879
-0.17581625 0.14699028 -0.15854435 -0.040819515 0.056267917 0.027515443 -0.08071174 0.13476443
0.031834103 -0.09971616 0.08312557 0.07663207 -0.06664422 -0.06503613 -0.1429952 0.07216468
0.019873513 0.0817409 0.0757883 -0.1637266 0.08281549 0.12761588 0.15926981 0.08843602
0.12251219 0.08568674 0.03705322 0.08096243 -0.052378867 0.077446215 0.15163504 0.07550618
-0.083658576 -0.017619124 0.013850411 0.13593717 -0.018530961 -0.063536316 0.14176057 -0.15071134
0.02614872 0.11816805 -0.0077702906 -0.03463099 -0.12042283 0.027805706 -0.088413104 0.10145093
0.07287402 0.045798767 0.030182157 -0.05488656 -0.06016682 -0.10504057 -0.08680958 -0.10614406
0.10653947 0.008261014 -0.10622946 -0.13968405 0.13566914 0.1279176 0.10439173 0.027787833
-0.15855214 -0.12878147 0.08106845 -0.16953029 0.029160753 -0.03092438 -0.12652723 0.0701453
0.020283697 0.056411248 0.10953458 0.117218934 0.06571469 -0.03743091 -0.11275261 0.09919642
-0.18639119 -0.009022858 -0.16645052 -0.08145854 -0.031089947 -0.118057445 0.08780331 0.12892576
0.051861502 -0.033287205 0.13074397 -0.11001207 0.084916696 0.15290017 -0.01699148 0.13335954
0.023638835 -0.011606844 -0.08749907 0.18528551 0.19032688 -0.16744445 0.07685808 -0.072600685
-0.12728001 -0.18035778 -0.0048229005 -0.057332635 0.18522096 -0.0061080395 0.0388861 -0.015842007
-0.13878973 -0.12741803 0.11482361 -0.053191867 0.06398295 -0.029249288 0.0014340044 -0.094772525
-0.012802772 0.04456247 -0.17423898 0.07694862 0.16603936 0.17794235 -0.14734714 -0.07119651
0.15221596 -0.05555809 0.15887202 0.12418773 0.17867634 -0.0741304 0.073484235 0.14437746
0.08290486 -0.15033156 -0.04905575 0.07065806 0.13654023 -0.1362708 0.0002734726 0.0071604606
0.12257392 0.03684351 0.050753362 0.055586834 0.19094658 0.15682375 -0.12252901 0.015787605
-0.104645185 -0.14032446 -0.10646206 0.14528102 -0.070697464 -0.15544352 0.032158647 -0.035220616
0.008391128 0.0040062633 -0.06649345 -0.15633535 -0.102776274 0.015721224 -0.045591563 0.04404669
0.0058368733 -0.16024116 -0.035467453 0.17226498 0.16649538 -0.18166605 0.13449726 0.0327452
0.09291634 0.022738185 -0.0011230853 0.17508902 -0.06466591 0.12343635 0.052622166 -0.18882158
-0.08867862 0.016374374 0.14612144 -0.19122407 0.082331456 0.14487115 0.014635177 0.07096264
0.051806547 0.075809866 0.16910541 0.17997369 -0.104813784 0.07721103 -0.08393029 -0.09867867
-0.052227464 -0.16880204 0.01784196 0.08780692 -0.072397895 0.12939587 0.118315995 -0.13622838
0.1854525 0.09554897 -0.1383349 -0.17646839 0.10056478 0.088521995 0.067013 0.112087324
0.0818986 0.052404966 -0.10786758 -0.101439655 -0.105061054 0.06946284 0.013687463 -0.07868897
-0.107689 -0.14307351 -0.009918206 -0.11647377 -0.04371799 0.07940628 -0.123204306 0.09534446
-0.10650896 -0.06744003 0.18207368 -0.102579504 0.035889465 0.06725079 -0.033365704 0.15009353
00000000: 17d3 bfba bd48 0b3d b948 27be 2037 923d
00000010: 1037 09bd 7b3b da3b ca64 113d 14d2 623b
00000020: 9224 9abb a0e8 99bd 6a0f 863d c07a b7bd
00000030: f942 06be b62e bfbd 942c da3d 1b6f bc3d
00000040: 2d09 34be 9f84 163e 7359 22be 5d32 27bd
00000050: 3079 663d 1168 e13c 324c a5bd b0ff 093e
00000060: 7a64 023d fc37 ccbd bd3d aa3d 46f1 9c3d
00000070: c47c 88bd aa31 85bd 556d 12be 13cb 933d
00000080: c7cd a23c c667 a73d e536 9b3d f2a7 27be
00000090: 2b9b a93d bdad 023e a017 233e f21d b53d
000000a0: ace7 fa3d 887c af3d 1ec5 173d a1cf a53d
000000b0: 398b 56bd 1f9c 9e3d 3746 1b3e fca2 9a3d
000000c0: 3055 abbd fb55 90bc d6ec 623c 1d33 0b3e
000000d0: 3ece 97bc 541f 82bd af29 113e 1354 1abe
000000e0: d735 d63c 1702 f23d ec9d febb 3ad9 0dbd
000000f0: 3fa0 f6bd cbc8 e33c ee11 b5bd 81c5 cf3d
00000100: f93e 953d 7d97 3b3d 9240 f73c bbd0 60bd
00000110: 7c71 76bd 831f d7bd 39c9 b1bd 0f62 d9bd
00000120: 5e31 da3d 3459 073c d58e d9bd 5609 0fbe
00000130: daec 0a3e d5fc 023e 55cb d53d 4fa3 e33c
00000140: 7e5b 22be 4adf 03be 3707 a63d 5999 2dbe
00000150: 88e2 ee3c 2055 fdbc 5b90 01be 57a8 8f3d
00000160: ff29 a63c 7b0f 673d aa53 e03d 7b10 f03d
00000170: 6c95 863d 2751 19bd d7ea e6bd 7e27 cb3d
00000180: 55dd 3ebe 9cd4 13bc 0172 2abe bcd3 a6bd
00000190: 58b0 febc 1ac8 f1bd 39d2 b33d 1d05 043e
000001a0: ba6c 543d 2a58 08bd bfe1 053e 024e e1bd
000001b0: cee8 ad3d dd91 1c3e b731 8bbc 678f 083e
000001c0: 3ba6 c13c a22a 3ebc b632 b3bd 7cbb 3d3e
000001d0: 0de5 423e 8f76 2bbe c567 9d3d abaf 94bd
000001e0: b155 02be b6af 38be 6c09 9ebb a0d5 6abd
000001f0: 90aa 3d3e f325 c8bb 0847 1f3d 19c7 81bc
00000200: e51e 0ebe df79 02be a428 eb3d b7df 59bd
00000210: 7e09 833d 349c efbc 34f5 bb3a 1918 c2bd
00000220: b8c2 51bc 2387 363d b46b 32be 3d97 9d3d
00000230: 3906 2a3e 8536 363e 2be2 16be 7acf 91bd
00000240: 80de 1b3e e190 63bd 59af 223e 2356 fe3d
00000250: eef6 363e aed1 97bd e77e 963d afd7 133e
00000260: 06ca a93d 84f0 19be afee 48bd 2cb5 903d
00000270: 34d1 0b3e 938a 0bbe df60 8f39 4ca2 ea3b
00000280: 0908 fb3d 38e9 163d c2e2 4f3d 05af 633d
00000290: 8087 433e 6896 203e 7df0 fabd 0255 813c
000002a0: 3750 d6bd 37b1 0fbe c808 dabd 8cc4 143e
000002b0: d5c9 90bd 962c 1fbe c9b8 033d 7e43 10bd
000002c0: f17a 093c f946 833b b82d 88bd 6016 20be
000002d0: 5e7c d2bd ccc9 803c 38be 3abd 4d6a 343d
000002e0: 3e43 bf3b 4216 24be 5246 11bd 3b66 303e
000002f0: c47d 2a3e aa06 3abe a6b9 093e d51f 063d
00000300: ec4a be3d 6e45 ba3c 7d34 93ba 894a 333e
00000310: 906f 84bd 32cc fc3d 578a 573d 725a 41be
00000320: 239d b5bd 8d23 863c dca0 153e 3ed0 43be
00000330: 659d a83d 1a59 143e 62c8 6f3c dc54 913d
00000340: 1a33 543d 3442 9b3d f829 2d3e 064b 383e
00000350: 9ca8 d6bd d120 9e3d a5e3 abbd 0b18 cabd
00000360: 77ec 55bd 71da 2cbe 4d29 923c 1dd4 b33d
00000370: 5945 94bd 5a80 043e a84f f23d 747f 0bbe
00000380: 43e7 3d3e 2eaf c33d aaa7 0dbe 21b4 34be
00000390: e8f4 cd3d 054b b53d 1d3e 893d 0a8e e53d
000003a0: 74ba a73d 97a6 563d aee9 dcbd 98bf cfbd
000003b0: 402a d7bd 8942 8e3d 6141 603c af27 a1bd
000003c0: 0d8c dcbd dd81 12be f97f 22bc cd89 eebd
000003d0: a311 33bd c29f a23d 8a52 fcbd f543 c33d
000003e0: 5f21 dabd 001e 8abd 8671 3a3e 3415 d2bd
000003f0: d500 133d c8ba 893d 7aaa 08bd 1eb2 193e

conv_layers.0.bias f4 [32]
0.026727991 0.03876697 -0.14909047 0.17278847 -0.09722882 0.09938924 0.08599999 -0.12576976
-0.06705331 0.13380864 -0.022963723 -0.12883736 -0.19152613 -0.13625045 0.17489356 0.05270251
0.13412076 0.09485655 0.14116678 0.075827494 0.06833532 0.101050906 -0.07554896 0.19449577
0.0037995675 -0.04974706 -0.111988336 0.05608748 0.17014007 0.13070323 0.1021369 0.08321568
00000000: a9f4 da3c 1dca 1e3d 2cab 18be 76ef 303e
00000010: e71f c7bd 968c cb3d c320 b03d cac9 00be
00000020: 3f53 89bd 2205 093e 6b1e bcbc f1ed 03be
00000030: 6d1f 44be 3d85 0bbe 4c17 333e 96de 573d
00000040: f456 093e 2744 c23d 068e 103e 724b 9b3d
00000050: 63f3 8b3d c7f3 ce3d 6ab9 9abd e629 473e
00000060: 2a02 793b 93c3 4bbd 245a e5bd fcbb 653d
00000070: 3339 2e3e 11d7 053e 272d d13d fc6c aa3d

conv_layers.3.weight f4 [64, 32, 3, 3]
0.017490026 -0.020666938 -0.05757095 -0.022908822 -0.0056441086 0.04991396 -0.023390135 0.05425755
-0.041600484 0.019529779 0.018585304 0.05022696 -0.033341605 -0.016613528 -0.020647306 0.010395042
0.026807865 0.03813663 0.043559548 0.018887492 0.06451335 0.024319604 5.2297786e-05 0.04421234
0.051232543 0.02008804 0.04896492 -0.025090266 0.0037282528 0.015426512 -0.050958138 0.026668191
0.008668222 0.016147906 -0.052667055 -0.0100272875 0.012590955 -0.023370326 -0.014811863 -0.051542748
0.033425685 -0.019562392 -0.004336412 -0.0027112064 0.0038530729 -0.051110983 0.05027877 0.024118377
0.053304683 -0.035321675 -0.050842572 0.059175953 2.4541874e-05 0.020454133 0.016389603 0.021052057
-0.0012436182 0.02675531 -0.04179251 0.050122984 -0.05200435 0.052815095 0.023584016 0.010537093
-0.0028885566 0.038924277 0.0060412874 0.014870982 -0.03211784 -0.010799284 -0.031953476 -0.057818815
0.04332098 -0.0076031364 -0.02484774 0.02966281 0.02831739 -0.025059022 -0.03482456 0.00680808
0.00096710265 0.023404604 -0.04798086 0.001588371 -0.018920355 0.023594951 0.04857407 0.028425299
0.03064122 0.05258381 -0.018615583 0.031235093 0.024170196 0.020515457 0.026074579 0.044407405
-0.038743496 -0.030766193 0.01447328 -0.00137277 0.019250229 0.0260879 0.025846459 -0.05419313
-0.0537194 -0.0066524395 0.050054427 0.026703838 -0.015161391 0.04492687 0.04969316 -0.030696249
-0.012329605 -0.02425948 0.026915826 -0.04994576 -0.050338592 0.014494917 0.048241902 0.012600967
-0.03692352 -0.05647664 -0.025513697 0.025401082 0.004222536 0.018985283 0.01510704 -0.023985464
-0.006645507 0.026408263 0.03147467 -0.00782185 0.040769916 -0.03720907 0.017062295 0.018061066
-0.062358595 0.03156718 -0.013882611 -0.055721533 0.053062588 -0.025426326 -0.013976669 -0.05456278
0.004521168 -0.039350223 -0.014798533 -0.035583023 -0.04221137 0.061816026 0.005118667 0.0025970687
0.0053016013 -0.02956412 0.026278246 -0.029800339 -0.04325918 -0.0015225301 0.050306004 -0.011242031
-0.03716191 -0.05382024 -0.03325923 0.037218697 -0.017977238 -0.056721784 0.0027401312 -0.038273595
-0.047645595 0.03275207 -0.02371196 -0.02193843 0.036709543 0.010067711 0.05020915 0.04969566
-0.033196833 -0.009196985 0.04404252 0.042169005 0.050965816 -0.026869936 -0.061263584 0.062635936
0.009423877 0.046033718 0.005388105 -0.020857813 0.05367913 0.036967576 0.067605555 -0.048056237
-0.0009010278 -0.037221964 0.0019106714 -0.0105029475 -0.008001752 -0.007245326 -0.048096158 0.051863257
-0.04135367 0.056230515 -0.052776445 -0.007864564 0.04260988 0.056830853 0.05715631 -0.009287928
-0.0030281434 0.056673035 -0.014389181 0.00088583183 0.043934353 -0.055036567 0.04575919 -0.033744246
-0.032873668 -0.035670176 -0.029166793 0.05789861 0.039255805 0.04903509 -0.01670252 -0.03288475
0.028651752 -0.050613835 -0.05121064 -0.03667066 0.025827933 0.05285717 0.014243383 -0.0419345
0.040047843 -0.04257058 -0.03298245 -0.021991732 0.027884895 0.049396444 0.017837038 0.058147408
-0.013521345 -0.015116905 0.017941177 0.002166658 -0.015462338 -0.057743534 0.005858669 0.038143866
-0.03586931 -0.036356106 -0.0058859396 0.015067542 -0.05966735 -0.03524502 0.031241242 -0.031035831
00000000: 3e47 8f3c b64d a9bc 84cf 6bbd 48ab bbbc
00000010: 37f2 b8bb 9572 4c3d ab9c bfbc 2a3d 5e3d
00000020: 4565 2abd eafc 9f3c 3540 983c c9ba 4d3d
00000030: 3591 08bd 1819 88bc 8a24 a9bc f74f 2a3c
00000040: 2b9c db3c 2835 1c3d 7f6b 323d f1b9 9a3c
00000050: 931f 843d e839 c73c 525a 5b38 0018 353d
00000060: 37d9 513d ac8f a43c 718f 483d 1a8a cdbc
00000070: b455 743b 7bbf 7c3c 7bb9 50bd 4077 da3c
00000080: 2905 0e3c 9d48 843c 69b9 57bd 7e49 24bc
00000090: 4b4a 4e3c 2073 bfbc 75ad 72bc 7d1e 53bd
000000a0: 5fe9 083d 4f41 a0bc 7618 8ebb 7fae 31bb
000000b0: d683 7c3b c059 51bd 1df1 4d3d e793 c53c
000000c0: 0356 5a3d 76ad 10bd 4d40 50bd 7c62 723d
000000d0: 46df cd37 6d8f a73c 7d43 863c 5d75 ac3c
000000e0: e700 a3ba f42d db3c 9f2e 2bbd c24d 4d3d
000000f0: 8302 55bd a454 583d 4433 c13c c5a3 2c3c
00000100: f04d 3dbb 106f 1f3d fef5 c53b 6ba5 733c
00000110: ff8d 03bd 7bef 30bc a6e1 02bd 6cd3 6cbd
00000120: 5771 313d bb23 f9bb 7d8d cbbc 6cff f23c
00000130: dff9 e73c 9448 cdbc 33a4 0ebd 5016 df3b
00000140: 2985 7d3a 03bb bf3c 9487 44bd e330 d03a
00000150: dcfe 9abc 334a c13c 9bf5 463d 2cdc e83c
00000160: 4c03 fb3c 1f62 573d b57f 98bc bde0 ff3c
00000170: 9300 c63c 0810 a83c 5b9a d53c 8ae4 353d
00000180: 80b1 1ebd 6209 fcbc 5621 6d3c 85ee b3ba
00000190: a8b2 9d3c 4bb6 d53c f4bb d33c 9ef9 5dbd
000001a0: e008 5cbd b5fc d9bb df05 4d3d 02c2 da3c
000001b0: 7c67 78bc 3d05 383d 0e8b 4b3d b376 fbbc
000001c0: 1d02 4abc d1bb c6bc 947e dc3c ed93 4cbd
000001d0: d72f 4ebd 177c 6d3c 4d99 453d 4974 4e3c
000001e0: 1e3d 17bd 0d54 67bd 1a02 d1bc ee15 d03c
000001f0: 335d 8a3b 0687 9b3c 8583 773c 2a7d c4bc
00000200: 8ec2 d9bb 2456 d83c 95eb 003d 3727 00bc
00000210: 5bfe 263d 8a68 18bd 3ac6 8b3c cdf4 933c
00000220: ba6b 7fbd 964c 013d e473 63bc 433c 64bd
00000230: 2858 593d df4a d0bc 66fe 64bc 397d 5fbd
00000240: 4e26 943b b32d 21bd 8c75 72bc 81bf 11bd
00000250: d4e5 2cbd cd32 7d3d 7eba a73b 9533 2a3b
00000260: 0eb9 ad3b 7430 f2bc 7a45 d73c d71f f4bc
00000270: 8a30 31bd a28f c7ba ab0d 4e3d 7f30 38bc
00000280: 1637 18bd 9d72 5cbd d53a 08bd a272 183d
00000290: 0045 93bc 1a55 68bd c693 333b c6c4 1cbd
000002a0: 0728 43bd 0927 063d 963f c2bc 39b8 b3bc
000002b0: bf5c 163d 0af3 243c 1ca8 4d3d ad8d 4b3d
000002c0: 67f9 07bd f3ae 16bc ee65 343d 68b9 2c3d
000002d0: 88c1 503d 571e dcbc 86ef 7abd 4547 803d
000002e0: 9b66 1a3c da8d 3c3d b38e b03b 01de aabc
000002f0: a6de 5b3d 506b 173d c874 8a3d 9ed6 44bd
00000300: f432 6cba 0f76 18bd 7e6f fa3a 8e14 2cbc
00000310: c819 03bc 336a edbb 7a00 45bd 916e 543d
00000320: 7762 29bd f851 663d 1d2c 58bd 5fda 00bc
00000330: b387 2e3d 78c7 683d bc1c 6a3d 652c 18bc
00000340: d173 46bb fc21 683d 99c0 6bbc 2b37 683a
00000350: 82f4 333d 066e 61bd fd6d 3b3d 6837 0abd
00000360: 8aa6 06bd e41a 12bd 33ef eebc 1827 6d3d
00000370: b2ca 203d 05d9 483d b9d3 88bc 29b2 06bd
00000380: 14b7 ea3c 7450 4fbd 40c2 51bd f933 16bd
00000390: 1a95 d33c c380 583d 145d 693c 83c3 2bbd
000003a0: 3509 243d 7d5e 2ebd 9b18 07bd 0128 b4bc
000003b0: dd6e e43c ed53 4a3d fb1e 923c fa2b 6e3d
000003c0: a288 5dbc e5ac 77bc 60f9 923c 7dfe 0d3b
000003d0: bf55 7dbc 7c84 6cbd 14fa bf3b be3c 1c3d
000003e0: b3eb 12bd 24ea 14bd d7de c0bb dadd 763c
000003f0: c065 74bd 155d 10bd a2ed ff3c db3e febc

conv_layers.3.bias f4 [64]
-0.050468333 -0.052307054 0.03623086 -0.020827783 -0.052674346 0.05522595 0.04698751 0.0062507913
-0.003692562 -0.024778135 0.025879614 -0.045455415 0.06616101 -0.0042104707 0.0021404568 -0.026834682
-0.049905382 0.012420956 -0.04480024 -0.017175203 0.0049280464 0.01934463 -0.033526193 -0.049761202
0.01488219 -0.023892254 -0.003956946 -0.043716084 -0.022905702 0.008775235 -0.041991483 0.042052533
0.053532444 -0.051713992 -0.057433587 0.06986425 -0.0030401761 -0.043149743 -0.019388799 -0.00014810132
0.017414166 -0.0069691828 -0.022074444 -0.044995494 -0.039245937 -0.05251034 -0.0006501442 -0.043841545
-0.007937001 -0.014102622 -0.018189661 -0.05045244 0.034389775 0.02367191 0.030265395 -0.0011580514
0.01708086 0.0550806 0.042563554 0.017073212 0.037424725 0.01684059 -0.034339122 0.0006504545
00000000: e2b7 4ebd ec3f 56bd cf66 143d 079f aabc
00000010: 0ec1 57bd 9b34 623d fa75 403d 70d3 cc3b
00000020: e9fe 71bb 84fb cabc 7c01 d43c 752f 3abd
00000030: 6c7f 873d fdf7 89bb e846 0c3b 68d4 dbbc
00000040: 9669 4cbd 4481 4b3c 7580 37bd 03b3 8cbc
00000050: 737b a13b a178 9e3c c352 09bd 67d2 4bbd
00000060: 6ed4 733c b0b9 c3bc 45a9 81bb a30f 33bd
00000070: bda4 bbbc 01c6 0f3c 43ff 2bbd 473f 2c3d
00000080: d644 5b3d 0dd2 53bd 7b3f 6bbd fd14 8f3d
00000090: b13d 47bb c9bd 30bd 42d5 9ebc a54b 1bb9
000000a0: 27a8 8e3c be5d e4bb 77d5 b4bc 324d 38bd
000000b0: 59c0 20bd 1515 57bd 706e 2aba 3193 33bd
000000c0: 320a 02bc af0e 67bc 7c02 95bc 38a7 4ebd
000000d0: 4bdc 0c3d 98eb c13c 22ef f73c c2c9 97ba
000000e0: 29ed 8b3c 329c 613d 1f57 2e3d 1fdd 8b3c
000000f0: ab4a 193d 47f5 893c 2ea7 0cbd 4383 2a3a

fc.weight f4 [128, 64]
0.07540091 0.038522433 0.069468156 0.044049885 -0.08454163 -0.0052273846 -0.034743126 -0.070478626
-0.02364177 0.11238882 -0.068045534 -0.08398543 -0.15927467 -0.044952877 -0.058222536 0.034415707
0.08968915 0.007861331 0.030867994 0.100395195 -0.109779574 -0.043586716 0.1340825 -0.12921874
-0.04790983 0.018135529 0.094078444 -0.08012143 0.050230663 0.107752785 -0.08981247 0.13625348
0.08648962 -0.035120856 -0.025950408 0.032231778 -0.08555869 -0.037094224 0.06663318 0.041798525
0.017383473 0.04460398 0.0919878 -0.016998613 -0.13726178 -0.031498984 -0.112202376 0.044008184
0.08622421 0.06338207 -0.0493133 0.01817097 -0.037306592 0.01411083 -0.03637174 0.038391013
0.04173573 -0.023981342 0.032875568 0.064591415 -0.0025173374 -0.080308795 0.099173784 0.08291294
-0.054414753 0.04660884 -0.093445286 -0.07871484 0.03646657 -0.10117817 0.041230794 0.084375694
0.007283165 -0.02109461 -0.117344774 -0.10593295 0.063376196 -0.02312971 -0.045905784 0.055811048
-0.026568765 0.0074572763 0.04047857 -0.13400252 0.037540007 -0.110204004 0.10204641 0.057410873
0.11945229 -0.10450168 0.010371771 0.043306585 0.082602195 -0.05164417 0.0053226775 0.095854215
0.08313106 0.05607175 0.033500478 0.038328797 0.059857804 0.093130164 -0.084454104 -0.067287095
-0.04686327 -0.074414425 0.06461726 -0.12369208 0.06817002 -0.0728963 0.005982787 -0.06686923
0.044836752 -0.09324629 -0.060571805 -0.06298318 0.032267798 -0.07953495 0.03983255 -0.06537178
0.09396979 -0.014069722 0.036649145 0.035509497 0.018488301 0.0515806 0.07463585 -0.01729547
-0.06615451 -0.03783786 0.09827376 0.06377713 -0.033159833 0.1372121 0.04149187 -0.115971826
0.07997302 0.10760209 -0.0058729756 -0.051574446 0.030959178 -0.08186644 -0.060973287 0.021139786
0.04797324 -0.07267658 0.026708648 0.06088394 -0.05197515 0.0046766414 0.04451024 -0.015190821
-0.036938637 0.021509001 -0.08516015 -0.08547401 0.021661682 -0.07471217 0.053834677 0.11166746
0.019991413 -0.051556136 -0.09762319 -0.002346072 0.0071941 0.024049897 -0.07294113 -0.02260723
0.06236017 0.10702719 -0.10706023 -0.05778873 0.04960614 0.0099642 -0.084629804 0.05157827
0.10522049 -0.03530328 0.05025582 0.047842473 -0.06873431 0.07547867 0.02854096 0.06569271
0.10667666 -0.08325099 -0.08544935 -0.025472922 0.09299943 -0.0942149 -0.017679915 -0.06356841
0.11345555 0.07532973 0.07170843 -0.111209124 0.024272865 0.10369945 -0.10543587 -0.097689964
0.026204234 -0.09391528 0.037960686 0.10790412 -0.030504819 -0.07763285 0.057750497 -0.056376785
0.06708686 0.104503766 0.04713472 0.14259139 0.008836465 0.03281156 0.014835394 -0.013615512
0.03139802 0.10381953 0.054060973 0.043438718 0.10792164 0.095916525 -0.05929777 -0.080318436
-0.09073926 0.072110415 -0.051058013 -0.0010475205 -0.06464527 -0.025346737 -0.12624925 -0.050049227
0.061906878 0.07239363 0.06126461 -0.076046824 0.050623603 -0.03035227 0.052928455 0.04144351
0.0302062 -0.08784353 -0.020058226 -0.11999006 -0.051577203 0.10303008 0.0026262489 0.02220539
0.10200932 -0.09721881 -0.08187727 -0.051060636 0.10202518 0.07795253 0.090905115 -0.093627356
00000000: cb6b 9a3d b3c9 1d3d 5245 8e3d a76d 343d
00000010: 2a24 adbd 7b4a abbb cf4e 0ebd 1957 90bd
00000020: 63ac c1bc 1c2c e63d 755b 8bbd 8e00 acbd
00000030: e618 23be 8220 38bd c17a 6ebd 7cf7 0c3d
00000040: f2ae b73d d0cc 003c e0de fc3c ff9b cd3d
00000050: 1dd4 e0bd fc87 32bd ec4c 093e eb51 04be
00000060: 193d 44bd f690 943c 33ac c03d b416 a4bd
00000070: abbe 4d3d 7ead dc3d 9aef b7bd 0886 0b3e
00000080: 7821 b13d e3da 0fbd f395 d4bc 7805 043d
00000090: 6539 afbd 1df0 17bd fa76 883d ee34 2b3d
000000a0: c967 8e3c aab2 363d 1a64 bc3d ad40 8bbc
000000b0: 5a8e 0cbe 1405 01bd 5cca e5bd ed41 343d
000000c0: 5296 b03d 75ce 813d befc 49bd 49db 943c
000000d0: ccce 18bd 1c31 673c 89fa 14bd e53f 1d3d
000000e0: 16f3 2a3d 8574 c4bc 88a8 063d 8148 843d
000000f0: eaf9 24bb f078 a4bd a01b cb3d 42ce a93d
00000100: 01e2 5ebd e9e8 3e3d 3e60 bfbd 3f35 a1bd
00000110: f85d 153d 8036 cfbd 9fe1 283d 2acd ac3d
00000120: 9ea7 ee3b 9bce acbc 7552 f0bd 60f3 d8bd
00000130: 61cb 813d 857a bdbc b407 3cbd 209a 643d
00000140: bda6 d9bc 2b5c f43b dbcc 253d f537 09be
00000150: 8dc3 193d a3b2 e1bd b5fd d03d aa27 6b3d
00000160: 67a3 f43d fa04 d6bd 5cee 293c 3f62 313d
00000170: 572b a93d d688 53bd db69 ae3b 374f c43d
00000180: 9e40 aa3d 7eab 653d cc37 093d a8fe 1c3d
00000190: 752d 753d 07bb be3d 46f6 acbd d1cd 89bd
000001a0: b3f3 3fbd 9766 98bd 0e56 843d 4652 fdbd
000001b0: b99c 8b3d a84a 95bd 410b c43b bcf2 88bd
000001c0: bea6 373d e9f7 bebd 241a 78bd 53fd 80bd
000001d0: 3d2b 043d 38e3 a2bd 7527 233d a4e1 85bd
000001e0: 3c73 c03d b184 66bc 6a1d 163d 6872 113d
000001f0: c774 973c 2e46 533d aeda 983d 3baf 8dbc
00000200: 047c 87bd dffb 1abd c143 c93d 959d 823d
00000210: 9bd2 07bd 5481 0c3e 61f3 293d a382 edbd
00000220: e5c8 a33d 7c5e dc3d 1772 c0bb ba3f 53bd
00000230: 1a9e fd3c 98a9 a7bd 20bf 79bd 582d ad3c
00000240: 977f 443d 75d7 94bd 18cc da3c 7061 793d
00000250: e5e3 54bd 833e 993b 5f50 363d ece2 78bc
00000260: f84c 17bd a533 b03c 7268 aebd ff0c afbd
00000270: d773 b13c b202 99bd c081 5c3d e9b1 e43d
00000280: 08c5 a33c 872c 53bd abee c7bd 8fc0 19bb
00000290: 7cbc eb3b 4a04 c53c 2962 95bd cc32 b9bc
000002a0: 616d 7f3d 1231 db3d 6542 dbbd e0b3 6cbd
000002b0: cf2f 4b3d e240 233c 6452 adbd bc43 533d
000002c0: d77d d73d 2c9a 10bd 0cd9 4d3d 78f6 433d
000002d0: 93c4 8cbd 9094 9a3d bbce e93c e689 863d
000002e0: 4b79 da3d 7f7f aabd 1200 afbd 97ac d0bc
000002f0: 7c76 be3d bef3 c0bd 78d5 90bc 2830 82bd
00000300: 625b e83d 7946 9a3d dfdb 923d 9cc1 e3bd
00000310: e3d7 c63c 6160 d43d c3ee d7bd ad11 c8bd
00000320: 43aa d63c a856 c0bd aa7c 1b3d d6fc dc3d
00000330: 3ee5 f9bc f9fd 9ebd c98b 6c3d 58eb 66bd
00000340: d664 893d 1206 d63d 5610 413d 7a03 123e
00000350: d2c6 103c 6a65 063d 2710 733c 9913 5fbc
00000360: 369b 003d 559f d43d 0a6f 5d3d ccec 313d
00000370: 0506 dd3d e26f c43d 38e2 72bd fe7d a4bd
00000380: 81d5 b9bd a0ae 933d 3522 51bd f54c 89ba
00000390: bd64 84bd f6a3 cfbc 7c47 01be 6b00 4dbd
000003a0: 1192 7d3d 1d43 943d 9af0 7a3d 70be 9bbd
000003b0: b25a 4f3d 53a5 f8bc 82cb 583d acc0 293d
000003c0: fe72 f73c 4fe7 b3bd 2651 a4bc 59bd f5bd
000003d0: 9e42 53bd 6f01 d33d 251d 2c3b 14e8 b53c
000003e0: 43ea d03d a81a c7bd 45af a7bd f524 51bd
000003f0: 94f2 d03d 93a5 9f3d 762c ba3d b3bf bfbd

fc.bias f4 [128]
0.0030460742 0.07249593 0.05127398 -0.11543505 0.045409266 0.05452157 0.07553578 0.01101545
0.036178015 -0.08650171 0.08179525 -0.0068238615 -0.07352889 0.049772903 0.08805065 -0.01089077
0.080361 0.0060649654 -0.098644465 0.09815159 0.07139788 0.006808226 0.03729479 -0.09548451
0.027400147 0.12189198 0.040797878 -0.06638128 -0.103380665 -0.09298974 0.0828037 -0.08095866
0.07214536 0.0014715121 -0.036339268 0.101856284 -0.096606776 -0.020476885 0.016246928 -0.0638279
0.07895858 -0.059974737 -0.074013375 -0.013565848 0.08306483 0.07207196 -0.012358874 -0.07368563
0.087637655 -0.026177568 0.09855496 -0.09559884 0.016078046 -0.12104314 -0.032968782 0.0684965
0.035870712 0.0462241 -0.10817086 -0.021695994 -0.09470173 0.082953066 -0.038051117 -0.038990803
-0.05342742 0.06547659 0.0023707498 -0.03589729 -0.058715895 0.045104787 -0.055580035 -0.09557891
0.088466935 -0.021874372 0.05339298 -0.09691128 0.10074353 -0.060875934 0.036856055 0.013479005
-0.086009696 -0.07256868 -0.05834348 0.009082454 0.029685793 0.04081778 -0.054763317 0.102956496
0.09976411 -0.07326414 0.021723263 -0.04392479 0.058686297 -0.06255229 -0.09165655 -0.08416347
-0.027401252 0.041115582 -0.00010477053 -0.026163474 0.0002507145 0.021530561 -0.0947096 0.06954429
0.000497039 -0.08384638 -0.03249418 -0.057155658 -0.08633089 -0.018334752 0.08113523 0.026141709
-0.021250175 0.0045920336 0.05748089 -0.06834455 0.010413249 0.014565978 -0.012396851 -0.03810719
-0.050342742 0.11192807 -0.05428112 -0.016596474 0.033251837 -0.0962476 0.03127398 -0.083796464
00000000: a5a0 473b bf78 943d aa04 523d 3669 ecbd
00000010: 11ff 393d 0352 5f3d 81b2 9a3d 257a 343c
00000020: 662f 143d cf27 b1bd 4584 a73d b39a dfbb
00000030: 5196 96bd acde 4b3d e653 b43d 336f 32bc
00000040: 4f94 a43d 9ebc c63b 1c06 cabd b303 c93d
00000050: 0d39 923d 8a17 df3b 6cc2 183d 628d c3bd
00000060: 4676 e03c 81a2 f93d ad1b 273d e9f2 87bd
00000070: 3eb9 d3bd 6871 bebd fc94 a93d a7cd a5bd
00000080: f2c0 933d c1df c03a 7cd8 14bd 079a d03d
00000090: c6d9 c5bd 24bf a7bc 4718 853c 34b8 82bd
000000a0: 09b5 a13d 12a8 75bd 5394 97bd 4a43 5ebc
000000b0: e51d aa3d 779a 933d e07c 4abc 7ee8 96bd
000000c0: 5f7b b33d 5772 d6bc 2fd7 c93d 53c9 c3bd
000000d0: 1bb6 833c 77e5 f7bd 460a 07bd e547 8c3d
000000e0: 2bed 123d 7b55 3d3d af88 ddbd ccbb b1bc
000000f0: fbf2 c1bd 4ce3 a93d 7ddb 1bbd d2b4 1fbd
00000100: b6d6 5abd 9718 863d 955e 1b3b 0909 13bd
00000110: 1480 70bd ccbf 383d e4a7 63bd e0be c3bd
00000120: 272e b53d e231 b3bc 99b2 5a3d 6c79 c6bd
00000130: a052 ce3d 0b59 79bd 60f6 163d 0bd7 5c3c
00000140: da25 b0bd e39e 94bd 93f9 6ebd 93ce 143c
00000150: 9f2f f33c 8b30 273d 804f 60bd dbda d23d
00000160: 2051 cc3d 820b 96bd fcf4 b13c 7bea 33bd
00000170: 0b61 703d 6a1b 80bd 6eb6 bbbd e65d acbd
00000180: 9778 e0bc d068 283d 40b8 dbb8 c854 d6bc
00000190: 5572 8339 dc60 b03c 1bf7 c1bd 3d6d 8e3d
000001a0: b94b 023a a7b7 abbd 9e18 05bd 0d1c 6abd
000001b0: 40ce b0bd c332 96bc 3a2a a63d 2327 d63c
000001c0: d914 aebc c578 963b 1571 6b3d 3af8 8bbd
000001d0: 559c 2a3c 24a6 6e3c 291c 4bbc 4916 1cbd
000001e0: 3134 4ebd 8b3a e53d e155 5ebd 54f5 87bc
000001f0: 1433 083d 761d c5bd 2519 003d 7b9d abbd
